Assets/Models/9x9/MoveAgent 9x9.onnx (onnx, 297963 bytes, 7 tensors)

network_body._body_endoder.seq_layers.0.weight f4 [256, 29]
-0.07437813 0.5232612 -0.0043574506 -0.3078087 -0.44142616 -0.18313333 0.19440621 -0.06551082
0.049318843 0.014260524 0.15482943 -0.0496086 -0.30598953 -0.09964757 0.42132866 0.06825036
-0.04666157 0.43681014 0.15265763 -0.0018781857 -0.03621973 -0.037212458 -0.11590931 -0.28955188
0.14052291 0.43918794 -0.28524956 0.45764095 0.15143748 -0.19334142 -0.14873196 0.1246778
0.1865709 0.09483375 0.070062146 -0.25563914 -0.23782334 0.04229402 0.16380483 -0.25100288
-0.084874526 0.22115843 0.22925639 0.1834419 0.23719606 0.23616178 -0.12192852 -0.057166662
-0.06911623 0.116820216 0.06320813 -0.14203161 -0.19687733 -0.31675285 0.277394 -0.055908363
0.123242415 0.380937 0.18251297 -0.016330466 0.3794363 -0.1388525 -0.13296269 0.20281549
-0.18212147 -0.032347973 -0.11932817 0.016952667 -0.15658776 0.2335743 0.050724566 0.26127097
0.12133459 0.08404058 -0.1683686 0.15837403 -0.07489377 0.26120907 0.07930978 -0.312381
-0.0038733066 -0.027101766 -0.06839995 -0.18267609 -0.23923308 -0.5038023 -0.22490261 -0.2682164
-0.06971825 0.17712346 -0.04035542 0.18088329 0.20051773 -0.11491165 -0.15533166 0.011144109
-0.09926365 -0.105924904 0.07241106 -0.039398603 -0.34280673 -0.0126250675 0.44573906 -0.38189232
-0.029959789 0.14300352 0.021250464 -0.05051503 0.11252591 0.044170227 -0.15385664 -0.017004604
0.4188447 0.012722727 0.039475236 -0.30615804 -0.2570342 0.08671752 -0.11940173 -0.047594298
-0.3568863 0.16744812 -0.11551609 0.13800853 0.13379043 -0.099364415 0.11132643 -0.24038842
-0.069931954 0.14511323 0.039715294 0.13980262 -0.029628735 0.23709917 0.14149801 0.056089323
0.18891302 0.016763767 0.044462197 0.11043038 0.24812716 -0.090265386 0.072509386 -0.0298746
-0.71340066 0.029126361 0.24568816 -0.01641319 -0.23549847 0.56603205 0.43479663 0.010293676
0.401016 -0.62081665 0.02544308 0.2722227 0.38375378 0.020044772 -0.031554352 -0.026695943
-0.19093917 -0.15732086 0.017613461 -0.22657289 -0.2176483 -0.38646257 -0.09054404 -0.06319516
-0.06542988 0.21160723 -0.089296296 0.17469901 -0.0020594464 -0.20674264 0.271162 0.3331564
-0.07286791 0.05707928 -0.013129648 -0.45328635 -0.26019529 -0.29681513 -0.2338155 -0.15662147
-0.34017438 0.026392298 0.57559824 0.22960353 0.006602661 0.11535659 -0.02490447 -0.0002608635
-0.17576788 -0.09744351 0.18183954 0.14338528 -0.07455917 0.23142716 -0.19547461 -0.18662457
-0.40418336 0.15712523 0.18247429 -0.13834815 -0.0018191735 -0.040788766 0.24850823 -0.112868346
-0.12551959 -0.062388733 -0.17931265 0.11064893 0.17501788 -0.10974739 -0.14187574 0.05016643
0.25018138 0.05997762 -0.18594743 -0.11525443 0.16445719 -0.004444639 0.18297963 -0.44416812
-0.20948786 0.26814166 0.07711468 0.09114868 -0.04836385 -0.12587894 -0.35897598 -0.44219238
0.05279368 -0.0064983196 -0.0713386 -0.04832745 -0.16073713 -0.0025194935 -0.029945526 0.10684912
-0.24769686 0.18789615 0.38671336 -0.07552883 -0.27863333 -0.03155144 0.116727784 -0.25493225
-0.20572115 0.021427482 0.13523845 0.21570797 -0.1339323 -0.064597376 0.34043893 -0.18732807
00000000: 9053 98bd 72f4 053f f2c8 8ebb 1a99 9dbe
00000010: 9c02 e2be 4e87 3bbe 6c12 473e 892a 86bd
00000020: 8e02 4a3d f9a4 693c 9b8b 1e3e 6332 4bbd
00000030: a9aa 9cbe 0614 ccbd 64b8 d73e d8c6 8b3d
00000040: 3420 3fbd 94a5 df3e 4852 1c3e 742d f6ba
00000050: 245b 14bd 176c 18bd dc61 edbd 2540 94be
00000060: 3de5 0f3e 3edd e03e 3b0c 92be ea4f ea3e
00000070: 6d12 1b3e 4bfb 45be 314d 18be 1357 ff3d
00000080: 710c 3f3e 3238 c23d be7c 8f3d 22e3 82be
00000090: f687 73be 7f3c 2d3d 74bc 273e 7383 80be
000000a0: b2d2 adbd 5b77 623e 30c2 6a3e 32d8 3b3e
000000b0: 86e3 723e 65d4 713e a9b5 f9bd 9727 6abd
000000c0: cf8c 8dbd 703f ef3d 4473 813d bc70 11be
000000d0: 369a 49be 6e2d a2be 9606 8e3e 2b00 65bd
000000e0: 8566 fc3d 2d0a c33e aee4 3a3e 78c7 85bc
000000f0: 7a45 c23e 5a2f 0ebe 5f27 08be ddae 4f3e
00000100: 0d7e 3abe 4f7f 04bd 5462 f4bd 52e0 8a3c
00000110: 8b58 20be 1a2e 6f3e 90c4 4f3d 4fc5 853e
00000120: 457e f83d 781d ac3d d168 2cbe cd2c 223e
00000130: e861 99bd 32bd 853e 2a6d a23d 67f0 9fbe
00000140: 4dd7 7dbb 8604 debc 4615 8cbd 710f 3bbe
00000150: 84f9 74be 30f9 00bf df4c 66be a953 89be
00000160: 71c8 8ebd da5f 353e ba4b 25bd 7839 393e
00000170: 8554 4d3e cd56 ebbd 430f 1fbe c895 363c
00000180: be4a cbbd 28ef d8bd 404c 943d 6e60 21bd
00000190: 5d84 afbe 5fd9 4ebc e937 e43e 6487 c3be
000001a0: 3b6e f5bc 846f 123e 7415 ae3c d9e8 4ebd
000001b0: fc73 e63d d7eb 343d 988c 1dbe 3d4d 8bbc
000001c0: d072 d63e fc72 503c c9b0 213d bfc0 9cbe
000001d0: fd99 83be f598 b13d e588 f4bd 3df2 42bd
000001e0: cdb9 b6be 8577 2b3e b393 ecbd 1c52 0d3e
000001f0: 5c00 093e 927f cbbd 1dff e33d 6228 76be
00000200: 7c38 8fbd 9098 143e 81ac 223d 6b28 0f3e
00000210: f6b7 f2bc 20ca 723e dbe4 103e ebbd 653d
00000220: 6a72 413e 2b54 893c fe1d 363d 5329 e23d
00000230: 0c15 7e3e 0fdd b8bd cd7f 943d 94bb f4bc
00000240: 6da1 36bf 689a ee3c ad95 7b3e f474 86bc
00000250: 8326 71be 7ae7 103f aa9d de3e cea6 283c
00000260: f851 cd3e d7ed 1ebf 026e d03c c660 8b3e
00000270: 607b c43e ef34 a43c 233f 01bd 73b1 dabc
00000280: 8f85 43be b818 21be 1b4a 903c b902 68be
00000290: 32df 5ebe 6cde c5be 276f b9bd 776c 81bd
000002a0: 1a00 86bd 91af 583e fae0 b6bd 4ce4 323e
000002b0: c7f7 06bb 58b4 53be bfd5 8a3e 7a93 aa3e
000002c0: c53b 95bd f7cb 693d bc1d 57bc 2615 e8be
000002d0: 5138 85be 27f8 97be 556d 6fbe 6161 20be
000002e0: 562b aebe a934 d83c 685a 133f 301d 6b3e
000002f0: 235b d83b 1340 ec3d 7604 ccbc 82c4 88b9
00000300: 7ffc 33be 7790 c7bd 2534 3a3e 97d3 123e
00000310: 7ab2 98bd 3efb 6c3e 7f2a 48be 831a 3fbe
00000320: 1ff1 cebe 70e5 203e 8ada 3a3e 23ab 0dbe
00000330: 5571 eeba 1f12 27bd f178 7e3e 8527 e7bd
00000340: 3588 00be 548b 7fbd bc9d 37be e89b e23d
00000350: e337 333e 3dc3 e0bd e047 11be 517b 4d3d
00000360: c617 803e 18ab 753d 0169 3ebe 840a ecbd
00000370: 7767 283e 56a4 91bb 035f 3b3e 016a e3be
00000380: fc83 56be dd49 893e 4dee 9d3d 29ac ba3d
00000390: 2c19 46bd 69e6 00be b3cb b7be 0a67 e2be
000003a0: 303e 583d dbef d4bb f919 92bd 01f3 45bd
000003b0: 4698 24be 161e 25bb 5250 f5bc b6d3 da3d
000003c0: 3fa4 7dbe d967 403e 4bff c53e dcae 9abd
000003d0: 07a9 8ebe 153c 01bd fa0e ef3d 7b86 82be
000003e0: 91a8 52be b088 af3c f37b 0a3e 8de2 5c3e
000003f0: 8d25 09be a14b 84bd 034e ae3e eed2 3fbe

network_body._body_endoder.seq_layers.0.bias f4 [256]
0.015664287 -0.0414082 -0.0015232965 0.05833625 0.0072623203 0.013597518 -0.06329944 0.09203573
-0.013420521 0.011177941 0.022770245 0.012185291 -0.022387534 0.035447348 0.021462068 0.010595646
0.02365456 0.019006552 0.031021442 -0.067218006 0.009685858 0.014853849 0.0237086 -0.0023764756
-0.043354243 -0.026742805 -0.00571897 0.028951494 0.0030643537 0.0130349295 0.038478233 0.036876585
0.042661507 0.06798161 -0.06876623 -0.024677668 -0.019938726 0.0013082623 -0.018960463 0.048952367
-0.031124067 0.031679627 -0.014567521 0.04689693 -0.010130742 -0.020979866 -0.025473554 -0.03396907
0.036719333 -0.016890842 0.0003927844 -0.050834555 -0.070110045 0.002547411 -0.030156886 0.021035949
-0.0013286158 -0.055889968 -0.0072182706 -0.060439866 -0.10127086 -0.033101212 0.007805525 0.0008141315
-0.015579621 -0.04971469 0.008530954 -0.08241872 -0.03522877 -0.06908897 0.0061383233 0.003718835
-0.0204708 -0.032520693 0.026359808 -0.0033683935 -0.037636373 0.03319272 -0.07074574 0.014496863
-0.08727486 0.042101346 -0.07050408 -0.026797226 0.036638655 0.011934814 0.050363354 -0.0027295826
-0.01921644 0.0018520345 -0.052455775 -0.038330756 0.0032241794 -0.03394846 -0.0008581859 0.02992378
0.03729316 -0.020896874 -0.051923133 -0.011576257 0.04286834 -0.0077955252 -0.0034450628 0.013750414
0.038897015 -0.040899243 -0.053914968 -0.011996675 0.007379024 -0.039172955 -0.028214475 0.040400945
0.012163116 0.016093003 0.0039699245 0.0054911966 -0.038025267 -0.068677716 -0.03374502 0.06421671
-0.003500862 -0.007708074 0.011519453 0.06980589 0.053270724 -0.037061036 0.004989216 0.032856036
-0.04528675 -0.048831854 0.04631668 -0.03892981 -0.019942166 0.012570243 0.022429755 -0.054451305
-0.04264351 -0.011761137 -0.06701004 -0.05297053 -0.035082713 0.019371605 0.010407547 -0.024871696
0.022842774 -0.0036377104 -0.009625062 -0.016093682 -0.0051130005 -0.014192761 -0.04091852 -0.06460731
-0.023100888 -0.01303503 0.025732564 -0.024695633 -0.016814074 -0.002744972 -0.07563431 -0.032443736
-0.0146952 -0.012471629 0.020350186 -0.006656912 -0.021269985 0.019969426 -0.018900119 0.007863129
-0.013652292 -0.024490267 -0.029234134 0.02172644 0.015263972 -0.021635503 -0.024024827 0.010632791
0.0010117722 -0.03318416 0.07237246 -0.014441319 0.03608262 -0.011668966 0.041822646 0.02484578
-0.0076986155 0.01851483 0.012658288 0.023235053 0.048359834 -0.03261172 -0.014337944 0.00397908
-0.034513038 -0.011365592 -0.029237803 -0.0043649236 0.01155229 0.007251424 -0.023069263 -0.03548669
0.055352785 -0.023910616 0.06679176 -0.034580626 -0.0039807856 0.017777275 -0.026216188 -0.036740817
0.026339931 -0.028189784 -0.0014821638 0.051544167 0.019485217 -0.0018939885 -0.03975122 0.040472046
0.04672769 -0.014002129 0.009406484 -0.017699897 -0.02602457 -0.014029627 -0.0038494628 -0.007594472
0.007753882 0.02855253 -0.00087950454 0.054191962 -0.03937877 -0.0115220435 -0.012023608 -0.036060665
-0.07328129 0.034949094 0.05238743 0.031614397 -0.010068604 -0.069694094 0.035759915 0.04234089
0.0049187904 0.055005774 -0.009615276 -0.010616451 -0.030209923 -0.030391434 -0.0076234187 0.021763327
-0.04059792 -0.0066487514 0.012352634 -0.02579929 -0.05818694 0.0076317596 0.05431178 -0.0076990398
00000000: 6452 803c a59b 29bd 59a9 c7ba fef1 6e3d
00000010: c2f8 ed3b 20c8 5e3c 23a3 81bd 3b7d bc3d
00000020: bfe1 5bbc af23 373c aa88 ba3c d1a4 473c
00000030: 1066 b7bc 3d31 113d 38d1 af3c 5c99 2d3c
00000040: 35c7 c13c a1b3 9b3c ae20 fe3c 98a9 89bd
00000050: 6fb1 1e3c 8f5d 733c 8a38 c23c a5be 1bbb
00000060: 3894 31bd ba13 dbbc 3366 bbbb af2b ed3c
00000070: 53d3 483b 7590 553c 5a9b 1d3d e70b 173d
00000080: d5bd 2e3d f139 8b3d 4fd5 8cbd d228 cabc
00000090: 8a56 a3bc 007a ab3a f952 9bbc 4782 483d
000000a0: e6f7 febc 7fc2 013d 9dac 6ebc ff16 403d
000000b0: 69fb 25bc f8dd abbc eaad d0bc 2723 0bbd
000000c0: 0367 163d aa5e 8abc a1ee cd39 e537 50bd
000000d0: db95 8fbd 77f2 263b 930b f7bc 9553 ac3c
000000e0: f324 aeba e1ec 64bd 3e87 ecbb cb8f 77bd
000000f0: 1967 cfbd 2395 07bd 7dc5 ff3b 716b 553a
00000100: ab41 7fbc a1a1 4bbd 6ac5 0b3c 25cb a8bd
00000110: 0b4c 10bd 857e 8dbd fd23 c93b b3b7 733b
00000120: 61b2 a7bc 6b34 05bd 86f0 d73c 44c0 5cbb
00000130: 9928 1abd 17f5 073d 24e3 90bd 4084 6d3c
00000140: 29bd b2bd 7672 2c3d 7164 90bd db85 dbbc
00000150: 6a12 163d 3d8a 433c ce49 4e3d cce2 32bb
00000160: cc6b 9dbc f7bf f23a dedb 56bd b600 1dbd
00000170: c14c 533b 8a0d 0bbd e1f7 60ba b722 f53c
00000180: b6c0 183d ec2f abbc 5aad 54bd 57aa 3dbc
00000190: b696 2f3d 9b71 ffbb 90c6 61bb 6b49 613c
000001a0: 7a52 1f3d f785 27bd f1d5 5cbd b48d 44bc
000001b0: bdcb f13b d273 20bd 0b22 e7bc 767b 253d
000001c0: ce47 473c 79d5 833c 2416 823b 7fef b33b
000001d0: 62c0 1bbd e7a6 8cbd 3838 0abd 0d84 833d
000001e0: b86e 65bb 0394 fcbb 16bc 3c3c 64f6 8e3d
000001f0: 6732 5a3d 50cd 17bd 947c a33b 0d94 063d
00000200: 997e 39bd e903 48bd 8fb6 3d3d dd74 1fbd
00000210: c15d a3bc 6cf3 4d3c 9bbe b73c 5508 5fbd
00000220: f6aa 2ebd c9b1 40bc 8f3c 89bd a0f7 58bd
00000230: e4b2 0fbd 33b1 9e3c 6a84 2a3c babf cbbc
00000240: c520 bb3c a766 6ebb 70b2 1dbc e6d6 83bc
00000250: f58a a7bb c188 68bc 2e9a 27bd d650 84bd
00000260: 133e bdbc e190 55bc 19cd d23c 7f4e cabc
00000270: abbd 89bc fde4 33bb 29e6 9abd b9e3 04bd
00000280: 23c4 70bc ce55 4cbc 6fb5 a63c 3a22 dabb
00000290: 643e aebc ec96 a33c 6cd4 9abc 5ad4 003c
000002a0: ddad 5fbc d09f c8bc 6c7c efbc a6fb b13c
000002b0: bd15 7a3c f03c b1bc b7cf c4bc 2835 2e3c
000002c0: 719d 843a 1dec 07bd 0338 943d 489b 6cbc
000002d0: 5fcb 133d 312f 3fbc 394e 2b3d 6189 cb3c
000002e0: ab44 fcbb 6aac 973c b564 4f3c 7057 be3c
000002f0: f614 463d de93 05bd b2e9 6abc f162 823b
00000300: 8b5d 0dbd bf36 3abc 1e84 efbc a207 8fbb
00000310: d145 3d3c 5a9d ed3b c0fb bcbc 7e5a 11bd
00000320: 9ab9 623d 32e0 c3bc 1eca 883d 6aa4 0dbd
00000330: 4071 82bb a6a1 913c 55c3 d6bc 8a7d 16bd
00000340: d7c6 d73c 43ee e6bc 2a45 c2ba fa1f 533d
00000350: 769f 9f3c b53f f8ba 2dd2 22bd 04c6 253d
00000360: 8965 3f3d 3069 65bc a71d 1a3c 60ff 90bc
00000370: 7b31 d5bc 85dc 65bc 4547 7cbb 0cdb f8bb
00000380: 4714 fe3b ffe6 e93c 8d8e 66ba 64f8 5d3d
00000390: a24b 21bd f4c6 3cbc abfe 44bc 59b4 13bd
000003a0: 8014 96bd c826 0f3d 3494 563d 197e 013d
000003b0: c9f6 24bc c7bb 8ebd fd78 123d a46d 2d3d
000003c0: ce2d a13b bc4d 613d 6489 1dbc 9ff0 2dbc
000003d0: cd7a f7bc 75f7 f8bc dfcd f9bb 0149 b23c
000003e0: 014a 26bd c5dd d9bb b462 4a3c 0859 d3bc
000003f0: 6e55 6ebd d713 fa3b 0776 5e3d 3a48 fcbb

network_body._body_endoder.seq_layers.2.weight f4 [256, 256]
-0.019152842 -0.019487122 -0.011785153 0.018719774 -0.13552484 -0.0649156 0.047415752 0.077496916
0.09294875 0.019410508 0.08307897 0.13891822 -0.028618813 0.058600813 -0.014269049 0.015418821
-0.021098275 0.032740664 0.08226844 -0.108212486 0.009129481 -0.04144384 -0.03926295 0.08700349
-0.024916068 -0.008265571 0.0343681 0.15324835 0.03531107 0.09655757 0.04277371 -0.05345889
-0.19456665 -0.012602101 0.0039249947 0.1325081 -0.11680011 0.009323406 -0.08864997 0.065824926
-0.067058 0.07044117 0.018915098 0.007151369 -0.048558764 -0.18092342 -0.028051393 0.013302569
-0.019743884 0.08518891 0.07519237 -0.15093261 -0.05298185 -0.05223609 -0.06360819 0.11646862
-0.04943637 0.014149688 -0.013844491 -0.16480279 -0.18284526 -0.12294929 -0.012654111 -0.06169411
-0.019694822 0.016443036 -0.09081711 0.026448952 -0.012438254 0.0010363861 -0.014751285 -0.028627722
-0.010613091 -0.0018335461 -0.016796114 0.008206344 -0.0012338053 0.0895132 -0.23964402 -0.040900655
0.1296635 0.020089746 -0.10557757 -0.034958266 0.15698512 0.03197504 0.11161732 0.023898726
0.030751511 0.11390749 -0.13653429 -0.10645559 -0.08694742 -0.014204266 0.020646784 -0.019948654
-0.12596042 -0.02337126 -0.026070822 0.12002578 0.030253723 0.101401284 -0.053202108 0.14985344
-0.013605639 0.094915606 -0.08056498 0.061194167 -0.021577893 0.085520856 -0.13835937 -0.10349327
0.032002576 -0.0044821836 0.063639514 -0.011692406 0.117669694 -0.0116370795 -0.107833736 0.013987088
0.03887518 0.07086155 -0.046361983 0.07575868 0.08149568 0.13660638 -0.06628696 0.12705803
-0.1256107 0.06274059 -0.057205554 -0.011877669 -0.0889856 0.04636401 0.19306768 0.05705004
-0.1090913 -0.014812524 -0.025900548 0.14327419 -0.118847474 0.04201028 0.04076453 0.019748624
0.038025413 -0.110254996 0.00622833 0.04451383 0.19192052 0.15021281 -0.09950535 -0.06282327
-0.041105554 0.031542342 -0.042691924 0.02757762 -0.0025827133 0.017507536 -0.007892908 -0.187772
0.009992204 -0.11292879 -0.052015916 -0.063640684 0.11460579 0.11520859 0.11568775 0.041892715
0.055716027 0.05237153 0.036785543 0.011964498 -0.062370736 -0.015489951 0.18757498 -0.1510223
0.08424802 -0.00469784 0.0023307074 -0.0929951 -0.08010407 -0.059445146 0.08382036 0.023443798
0.062967345 0.0939361 -0.04313824 0.049477972 -0.004653242 -0.2660677 -0.06290395 -0.101576105
-0.16945013 -0.117123686 0.13202749 -0.0784325 -0.05715595 0.025909957 -0.02847938 -0.09697823
-0.18474229 -0.09353152 -0.04299763 0.0034556843 0.06891127 0.018043108 0.05309153 0.050455514
0.07245473 0.029320583 0.0024300402 0.18013148 0.08877751 -0.079396114 -0.0064037023 -0.09537022
0.014735822 -0.008259104 -0.15420902 -0.030095125 -0.073510475 -0.02055092 -0.07644132 0.14702134
0.04403501 0.1231007 -0.016301133 -0.02069827 0.052697394 -0.092587486 0.08602859 -0.11132837
-0.10752224 -0.106407784 -0.13825834 -0.06885649 -0.005785775 0.05315368 -0.062128123 0.09560687
0.040506143 0.022520239 0.052101098 0.05070756 -0.08567672 -0.0945115 -0.006197046 -0.05840927
0.04913118 0.0617291 0.016822241 -0.20741044 -0.037886396 -0.054137554 0.051569223 0.04223893
00000000: 6ce6 9cbc 75a3 9fbc 8416 41bc 365a 993c
00000010: 06c7 0abe 78f2 84bd 0537 423d b4b6 9e3d
00000020: ea5b be3d c902 9f3c 4f25 aa3d 9440 0e3e
00000030: 0072 eabc 6807 703d bbc8 69bc 399f 7c3c
00000040: 4ad6 acbc 131b 063d 5b7c a83d 829e ddbd
00000050: d293 153c 04c1 29bd 30d2 20bd e32e b23d
00000060: c81c ccbc 516c 07bc 91c5 0c3d 23ed 1c3e
00000070: 57a2 103d fabf c53d 7c33 2f3d b6f7 5abd
00000080: 7b3c 47be 0b79 4ebc 3e9d 803b 34b0 073e
00000090: e534 efbd 33c1 183c 1e8e b5bd 38cf 863d
000000a0: b455 89bd 7643 903d d6f3 9a3c 0856 ea3b
000000b0: 8ee5 46bd fd43 39be 09cc e5bc 05f3 593c
000000c0: edbd a1bc 8677 ae3d 75fe 993d 148e 1abe
000000d0: 7f03 59bd 83f5 55bd 0345 82bd 1a87 ee3d
000000e0: cb7d 4abd 18d4 673c 01d4 62bc 10c2 28be
000000f0: ca3b 3bbe d6cc fbbd 3053 4fbc f7b2 7cbd
00000100: 0957 a1bc 8cb3 863c 52fe b9bd 79ab d83c
00000110: d2c9 4bbc 59d7 873a 60af 71bc af84 eabc
00000120: 88e2 2dbc 9953 f0ba 0198 89bc e773 063c
00000130: a3b7 a1ba b252 b73d 3e65 75be 7287 27bd
00000140: 82c6 043e 4093 a43c 0e39 d8bd 6630 0fbd
00000150: b5c0 203e 42f8 023d 9f97 e43d 43c7 c33c
00000160: 98ea fb3c 5548 e93d a5cf 0bbe 6305 dabd
00000170: 7d11 b2bd 02b9 68bc 7223 a93c 5c6b a3bc
00000180: c5fb 00be 1675 bfbc 7a92 d5bc 13d0 f53d
00000190: a8d6 f73c 7aab cf3d 74ea 59bd 2e73 193e
000001a0: 30ea 5ebc 1d63 c23d 41ff a4bd bca6 7a3d
000001b0: 1fc4 b0bc 8f25 af3d 14ae 0dbe 48f4 d3bd
000001c0: 2215 033d 48df 92bb 6f55 823d 8191 3fbc
000001d0: cffc f03d 73a9 3ebc efd7 dcbd 192a 653c
000001e0: 953b 1f3d dc1f 913d 10e6 3dbd 5e27 9b3d
000001f0: 35e7 a63d 8be2 0b3e 75c1 87bd 801b 023e
00000200: 17a0 00be 237e 803d 5f50 6abd 8e9a 42bc
00000210: 153e b6bd 30e8 3d3d 89b3 453e 4ead 693d
00000220: 426b dfbd 3bb0 72bc 632d d4bc 78b6 123e
00000230: 4e66 f3bd f912 2c3d b5f8 263d dec7 a13c
00000240: 89c0 1b3d 5fcd e1bd 0517 cc3b 2254 363d
00000250: d086 443e 63d1 193e 76c9 cbbd 7da9 80bd
00000260: 4c5e 28bd 8b32 013d badd 2ebd 76ea e13c
00000270: bd42 29bb f76b 8f3c 4151 01bc 4e47 40be
00000280: 57b6 233c 3647 e7bd a40e 55bd 0c56 82bd
00000290: 71b6 ea3d 7bf2 eb3d b3ed ec3d b297 2b3d
000002a0: 7d36 643d 8883 563d 70ac 163d be06 443c
000002b0: 7578 7fbd 90c9 7dbc a813 403e 97a5 1abe
000002c0: 3a8a ac3d 57f0 99bb c8be 183b 3774 bebd
000002d0: 9a0d a4bd c17c 73bd 02aa ab3d 350d c03c
000002e0: 06f5 803d 9261 c03d b9b1 30bd 6aa9 4a3d
000002f0: 397a 98bb 073a 88be c9d3 80bd 2207 d0bd
00000300: 5684 2dbe 8bde efbd 3732 073e 38a1 a0bd
00000310: 5c1c 6abd 1e41 d43c 974d e9bc 869c c6bd
00000320: 152d 3dbe 748d bfbd 481e 30bd c378 623b
00000330: 5a21 8d3d 24cf 933c 8176 593d 71aa 4e3d
00000340: 2563 943d b831 f03c 4f41 1f3b 6374 383e
00000350: fcd0 b53d 6e9a a2bd 26d6 d1bb 7651 c3bd
00000360: 846e 713c 3151 07bc f8e8 1dbe 0d8a f6bc
00000370: a98c 96bd 675a a8bc 448d 9cbd c38c 163e
00000380: 0e5e 343d 381c fc3d f489 85bc 6b8f a9bc
00000390: 39d9 573d 829e bdbd c22f b03d 2100 e4bd
000003a0: 9f34 dcbd 53ec d9bd 9893 0dbe a204 8dbd
000003b0: 9996 bdbb acb7 593d 0f7a 7ebd 89cd c33d
000003c0: c5e9 253d 5d7c b83c f667 553d bbb2 4f3d
000003d0: 4777 afbd 3f8f c1bd 9710 cbbb 8f3e 6fbd
000003e0: c73d 493d a7d7 7c3d ccce 893c 6763 54be
000003f0: c42e 1bbd 57bf 5dbd 403a 533d ba02 2d3d

network_body._body_endoder.seq_layers.2.bias f4 [256]
-0.063702635 0.0043210248 -0.010897489 -0.021562483 -0.05646834 -0.04883663 -0.013125325 -0.004781397
-0.059703574 -0.035898823 0.002878983 -0.029241474 -0.10381862 -0.018647512 -0.0062380526 -0.08035283
-0.01657735 -0.0071321535 -0.008735921 0.007887653 -0.009414605 -0.02531917 -0.047662456 -0.0013959749
-0.02620708 -0.013929058 0.0014470723 -0.014202667 -0.016605025 -0.03748749 -0.00467887 -0.004876286
-0.08032654 -0.058506463 -0.0025721877 -0.024341399 -0.003455906 -0.0013828506 -0.06217299 -0.020671139
-0.0059059965 0.006747482 -0.009556404 -0.07412826 -0.08442352 -0.050097536 -0.017784113 -0.015159977
-0.027778156 -0.03017525 -0.008744991 0.004471729 -0.01460715 0.030948844 -0.017491698 -0.014983626
0.00031768583 -0.018636275 -0.04357313 -0.008684434 0.0051685264 -0.018695245 -0.05546473 0.0010453139
-0.013370491 -0.07712005 0.0017250276 -0.006212089 -0.0048148413 -0.012352641 -0.011518988 -0.0027315065
-0.016495839 -0.05852917 0.005035513 0.0049395193 -0.010215425 -0.010522922 -0.05378891 -0.044044137
-0.0016258992 -0.032099094 -0.0132189235 -0.05152774 -0.013454562 -0.01532815 -0.046839975 -0.013182326
-0.0070404755 0.0013278995 -0.04891558 -0.058498487 0.008989478 -0.038635023 -0.020802215 -0.05817331
-0.04339316 -0.008800696 -0.05190698 -0.010237848 0.004838996 0.0025357695 -0.0017875409 -0.009594017
-0.0236825 -0.0067825494 -0.032389842 -0.009984524 -0.0024782526 -0.0047133425 -0.062098168 0.0123116905
-0.008620285 -0.02543079 -0.02037065 -0.008972879 -0.024304722 0.0016164016 -0.0066035716 -0.070147865
-0.01763694 -0.010542481 0.00891083 -0.012202196 0.0006321696 -0.068047024 -0.007126445 0.013671936
-0.0046605757 -0.05768469 -0.06689203 -0.03030811 -0.019494385 -0.035832893 -0.04759697 -0.01740931
-0.00459364 -0.010065023 0.0021903603 -0.07086206 -0.025660561 -0.036981504 -0.05564644 -0.0020435227
-0.040682252 -0.027704807 -0.019388644 -0.023151675 -0.036003064 -0.005034682 -0.041271806 -0.086234756
-0.04910021 -0.039065715 -0.009835747 -0.03188002 -0.0048640273 -0.07116457 -0.017235024 -0.064410366
-0.013979219 -0.012289659 -0.005975684 0.0048180544 0.0032031501 -0.036105067 -0.004272651 -0.01994566
-0.012004081 -0.01851903 -0.083026506 -0.03623656 0.024237236 -0.015643654 -0.008622233 -0.06502336
-0.006166741 -0.0123594785 -0.0067980564 0.004845804 -0.02545568 -0.00855505 -0.018188851 -0.043236773
-0.010037753 0.0118833985 -0.0063945493 -0.006664245 -0.07573248 -0.012419342 -0.019275324 -0.025736472
0.0040898137 0.0013223761 -0.077708185 -0.02878607 -0.0064319083 2.63437e-05 -0.025318243 -0.021164956
-0.020933907 -0.007461445 -0.010675182 -0.09116818 -0.03861395 -0.017392365 -0.0047816993 -0.04908514
-0.006602101 0.005405811 -0.039736375 0.010845073 -0.09362111 -0.06829598 -0.045424834 0.001598942
0.003902166 -0.061604958 -0.0695124 -0.011561003 -0.07185637 -0.017655045 0.013849851 0.0032276262
-0.011568263 -0.023002237 -0.058391333 -0.07398301 -0.007057166 -0.07743252 -0.00931503 0.006668187
-0.04530986 -0.03673951 -0.009182606 -0.07868757 -0.010570647 -0.07521098 -0.024315739 -0.016910682
-0.10421334 -0.06813319 -0.011299711 -0.008471485 -0.054408386 0.01775165 -0.008242943 -0.028303897
-0.0018877634 0.0015321459 -0.053767618 -0.02366759 -0.034667328 -0.019869374 -0.022960894 -0.025385598
00000000: 8776 82bd 6297 8d3b 628b 32bc cea3 b0bc
00000010: 594b 67bd eb08 48bd 9a0b 57bc 44ad 9cbb
00000020: bc8b 74bd a50a 13bd 52ad 3c3b d18b efbc
00000030: db9e d4bd abc2 98bc 9468 ccbb 0690 a4bd
00000040: 39cd 87bc d7b4 e9bb 1c21 0fbc 373b 013c
00000050: b73f 1abc 266a cfbc b539 43bd 25f9 b6ba
00000060: 3bb0 d6bc b436 64bc b0ab bd3a 4eb2 68bc
00000070: 4307 88bc 7b8c 19bd 3551 99bb 40c9 9fbb
00000080: 3e82 a4bd 79a4 6fbd 2692 28bb 9d67 c7bc
00000090: 7b7c 62bb c440 b5ba 1ba9 7ebd 8556 a9bc
000000a0: 1787 c1bb fb19 dd3b 7792 1cbc 8fd0 97bd
000000b0: 3de6 acbd 1333 4dbd fdaf 91bc 8d61 78bc
000000c0: 048f e3bc 1632 f7bc 2747 0fbc 9587 923b
000000d0: d452 6fbc 6e88 fd3c c04a 8fbc e27d 75bc
000000e0: 128f a639 1aab 98bc bd79 32bd 2849 0ebc
000000f0: be5c a93b c526 99bc fc2e 63bd ea02 893a
00000100: e70f 5bbc 1ef1 9dbd 521a e23a c88e cbbb
00000110: d1c5 9dbb bb62 4abc 23ba 3cbc 1303 33bb
00000120: 4822 87bc 48bc 6fbd f200 a53b b1db a13b
00000130: 995e 27bc 5568 2cbc c351 5cbd a067 34bd
00000140: 201c d5ba 577a 03bd 2f94 58bc c00e 53bd
00000150: 8670 5cbc ec22 7bbc 46db 3fbd affa 57bc
00000160: cab3 e6bb ea0c ae3a b45b 48bd 1c9c 6fbd
00000170: 9b48 133c c23f 1ebd 6869 aabc 2347 6ebd
00000180: 07bd 31bd cb30 10bc 6a9c 54bd a6bc 27bc
00000190: 7190 9e3b 272f 263b eb4b eaba 3930 1dbc
000001a0: cd01 c2bc 2640 debb 36ab 04bd 2196 23bc
000001b0: 2e6a 22bb 6272 9abb a65a 7ebd f9b6 493c
000001c0: 193c 0dbc 3b54 d0bc 59e0 a6bc fb02 13bc
000001d0: b21a c7bc 70dd d33a c662 d8bb afa9 8fbd
000001e0: 587b 90bc 5fba 2cbc bbfe 113c b8eb 47bc
000001f0: 2fb8 253a 3d5c 8bbd f484 e9bb 4100 603c
00000200: beb7 98bb c846 6cbd b0fe 88bd b748 f8bc
00000210: b0b2 9fbc 83c5 12bd 0af5 42bd f89d 8ebc
00000220: 3f86 96bb c4e7 24bc 268c 0f3b 2120 91bd
00000230: 1936 d2bc eb79 17bd 85ed 63bd 9fec 05bb
00000240: 6fa2 26bd 31f5 e2bc efd4 9ebc 95a8 bdbc
00000250: f377 13bd f9f9 a4bb a00c 29bd d99b b0bd
00000260: 4d1d 49bd 5f03 20bd 1d26 21bc a094 02bd
00000270: 6b62 9fbb bbbe 91bd 7730 8dbc 95e9 83bd
00000280: 1809 65bc 915a 49bc accf c3bb c5e0 9d3b
00000290: f1eb 513b e8e2 13bd 9801 8cbb 1565 a3bc
000002a0: c4ac 44bc 39b5 97bc cd09 aabd ca6c 14bd
000002b0: 2b8d c63c 1f27 80bc 4444 0dbc f82a 85bd
000002c0: 5f12 cabb 697f 4abc 3bc2 debb 8dc9 9e3b
000002d0: 6e88 d0bc 7b2a 0cbc c900 95bc 0b19 31bd
000002e0: 6375 24bc 96b2 423c 5e89 d1bb bd5f dabb
000002f0: a119 9bbd 7f7a 4bbc 49e7 9dbc 4bd5 d2bc
00000300: d803 863b 9453 ad3a 7825 9fbd c4d0 ebbc
00000310: c2c2 d2bb aafc dc37 3468 cfbc 2162 adbc
00000320: 967d abbc 237f f4bb f5e6 2ebc 62b6 babd
00000330: a929 1ebd 6f7a 8ebc cdaf 9cbb 800d 49bd
00000340: 7056 d8bb 3b23 b13b 9cc2 22bd 88af 313c
00000350: 6dbc bfbd c3de 8bbd 640f 3abd 9793 d13a
00000360: 7bbb 7f3b 7b55 7cbd 845c 8ebd 5c6a 3dbc
00000370: 6f29 93bd 50a1 90bc 7cea 623c 9586 533b
00000380: d088 3dbc 306f bcbc c02b 6fbd 6884 97bd
00000390: cd3f e7bb f194 9ebd 119e 18bc cf80 da3b
000003a0: d596 39bd 2b7c 16bd a472 16bc f326 a1bd
000003b0: 8230 2dbc 3708 9abd cd31 c7bc 4588 8abc
000003c0: ce6d d5bd 6a89 8bbd 6c22 39bc fccb 0abc
000003d0: 54db 5ebd e96b 913c 690d 07bc 93dd e7bc
000003e0: d46e f7ba 49d2 c83a 6f3b 5cbd 89e2 c1bc
000003f0: 54ff 0dbd 19c5 a2bc 7c18 bcbc 75f5 cfbc

action_model._continuous_distribution.log_sigma f4 [1, 2]
-0.2693476 -0.1286885
00000000: eee7 89be ebc6 03be

action_model._continuous_distribution.mu.weight f4 [2, 256]
0.052256018 0.01357973 0.010847976 0.019832691 0.05414031 0.036661398 0.02538329 0.028022576
0.057718914 0.061108403 0.032404266 0.034762077 0.028997453 -0.013313777 0.027245963 0.011773403
0.0022501461 -0.010584326 -0.0102969855 0.0020361003 0.022149317 0.01406193 0.04496829 0.017169219
0.03182486 -0.019212676 -0.025511194 0.05680294 0.018273631 0.00516524 0.017290786 0.0050469646
0.011349935 -0.011561965 0.0007362376 0.03139983 -0.003498417 0.0048702825 0.0467356 0.024999298
-0.014966073 -0.0034284163 0.0130999405 0.03075585 0.024804318 0.014993665 0.02031239 0.04868121
0.01669197 -0.016798757 0.00350271 0.036394764 0.025051398 -0.018622102 -0.0110509265 -0.009831656
-0.014187574 -0.013059196 0.029814849 -0.009906577 -0.015154879 0.0134015875 0.036955312 -0.0061295126
0.0032367 -0.014884545 -0.033113446 0.011470401 0.017098041 0.019915966 -0.019690733 0.008419924
0.03878633 -0.022037089 -0.015253632 0.025260985 -0.02905015 -0.00032588857 0.03629892 -0.01941956
0.037061162 0.010014524 -0.014595726 -0.0071634646 0.01642797 -0.0056890785 -0.008440889 0.03436161
0.044631593 0.0037245406 0.021759985 0.025485475 0.028291699 0.010259263 0.012060141 0.014221856
0.04336901 0.02562023 0.029860763 0.017507045 0.013782969 0.004676482 -0.02416132 -0.010443714
0.023454282 -0.00949707 0.012213848 0.030760717 0.017344793 0.027386783 0.017819589 -0.0069810767
0.01450825 0.023565015 -0.008842178 -0.022365294 -0.0034025384 0.0084355045 -0.0018474145 0.0017974153
0.009204062 -0.011929409 0.015319589 -0.0018132976 -0.0111190425 0.017231643 -0.021459803 0.015490967
0.03843531 0.0071837273 -0.001117388 0.03007295 0.06888662 0.01896488 0.005476634 0.00284021
-0.0067232675 -0.0021291648 0.0049273875 0.01859237 0.041979633 0.021788914 -0.0052944277 -0.033479594
0.05030568 -0.0031526594 -0.000456062 0.041236233 0.034797587 0.001573178 0.0019947581 0.04774825
0.048738815 0.039624613 -0.017297806 0.011216341 0.014424495 0.04297738 -0.011324982 0.034505088
-0.011232429 0.020820677 0.011148776 0.022076031 -0.0011045121 0.002067414 0.04586159 -0.006935216
-0.001383097 -0.007369752 -0.015337441 0.010636886 0.018884772 0.013201757 -0.0044980445 0.015639726
0.010717113 0.014080763 0.037877075 -0.01733349 0.01356207 -0.0022732392 -0.0044077532 0.011673551
-0.0009790515 -0.021814037 0.002201747 0.040533394 0.010040422 0.0024166417 -0.014146832 0.011793944
0.008362232 -0.019886058 -0.01963492 -0.0067938305 0.0005530765 0.0014817527 0.008896093 0.0286805
0.05291865 -0.0061146067 0.008684299 0.006422097 0.00082948466 0.013962931 0.015303597 0.020732366
0.047010697 0.048246082 0.017260866 0.01981105 0.037868015 0.03276651 0.045227874 -0.02179939
-0.0036997667 0.050981145 0.024352819 0.007995338 0.041440528 -0.008175407 0.0013720004 -0.0060032364
-0.022357779 0.04010846 0.019132938 0.004563028 0.029155638 0.036506604 2.2241313e-06 -0.0041155145
0.0030811117 0.021687988 -0.014249792 0.008984504 0.0018667397 0.004000346 0.029315403 0.023602277
0.00036192025 -0.029482484 0.03891447 -0.029965451 0.009080688 -0.01655538 0.028427113 0.014805314
0.05131982 -0.0055424166 0.048596844 -0.022504754 0.045340072 0.037682462 0.0043175253 -0.006867035
00000000: 680a 563d 847d 5e3c b6bb 313c 2b78 a23c
00000010: 3bc2 5d3d 432a 163d 9ef0 cf3c 9a8f e53c
00000020: ab6a 6c3d ce4c 7a3d 56ba 043d ae62 0e3d
00000030: 118c ed3c 0722 5abc ed32 df3c 3be5 403c
00000040: 3077 133b e269 2dbc b0b4 28bc 1870 053b
00000050: 7c72 b53c 0264 663c ab30 383d 76a6 8c3c
00000060: c95a 023d e763 9dbc dafc d0bc 33aa 683d
00000070: 95b2 953c 2c41 a93b 68a5 8d3c 0261 a53b
00000080: 14f5 393c 656e 3dbc 1200 413a 1c9d 003d
00000090: b345 65bb e496 9f3b d46d 3f3d 54cb cc3c
000000a0: 4334 75bc 48af 60bb 22a1 563c b1f3 fb3c
000000b0: 6d32 cb3c fda7 753c 2b66 a63c f365 473d
000000c0: 99bd 883c 8c9d 89bc b98d 653b ad12 153d
000000d0: 9738 cd3c 618d 98bc f20e 35bc f414 21bc
000000e0: 0073 68bc 3df6 55bc 453e f43c 324f 22bc
000000f0: 2b4c 78bc 5592 5b3c 745e 173d 14da c8bb
00000100: d11e 543b 4ede 73bc f7a1 07bd 59ee 3b3c
00000110: 3111 8c3c cf26 a33c 764e a1bc b9f3 093c
00000120: 6ade 1e3d 2087 b4bc 5fea 79bc 20f0 ce3c
00000130: 95fa edbc 06dc aab9 2dae 143d c515 9fbc
00000140: 72cd 173d f513 243c e922 6fbc 7fbb eabb
00000150: f393 863c 736b babb a84b 0abc c2be 0c3d
00000160: 9ecf 363d 6c17 743b ff41 b23c eac6 d03c
00000170: fec3 e73c 7816 283c e697 453c ca02 693c
00000180: b4a3 313d 84e1 d13c 8f9e f43c ef6a 8f3c
00000190: f6d1 613c 2d3d 993b f6ed c5bc 1d1c 2bbc
000001a0: 3223 c03c 9999 1bbc 971c 483c e6fd fb3c
000001b0: ab16 8e3c 3f5a e03c 63fa 913c 84c1 e4bb
000001c0: 03b4 6d3c 6b0b c13c c8de 10bc 6c37 b7bc
000001d0: 1ffd 5ebb 1235 0a3c f224 f2ba 4097 eb3a
000001e0: a2cc 163c 9173 43bc 03ff 7a3c 2cac edba
000001f0: a52c 36bc 6029 8d3c 78cc afbc d3cd 7d3c
00000200: 586e 1d3d 7965 eb3b 5275 92ba 8c5b f63c
00000210: 6e14 8d3d 3c5c 9b3c 5675 b33b d122 3a3b
00000220: db4e dcbb 7589 0bbb ec75 a13b 074f 983c
00000230: d6f2 2b3d aa7e b23c e17c adbb e621 09bd
00000240: 540d 4e3d d99c 4ebb 9b1b efb9 53e7 283d
00000250: ea87 0e3d 1833 ce3a 7dba 023b ab93 433d
00000260: 5aa2 473d 6b4d 223d 21b4 8dbc bec4 373c
00000270: b854 6c3c 0d09 303d 6b8c 39bc 3555 0d3d
00000280: 3908 38bc 2090 aa3c 5ba9 363c cbd8 b43c
00000290: 47c5 90ba 747d 073b 5dd9 3b3d cf40 e3bb
000002a0: 0949 b5ba f67d f1bb e449 7bbc 5546 2e3c
000002b0: 3db4 9a3c 2f4c 583c 5564 93bb e21e 803c
000002c0: d496 2f3c 00b3 663c fe24 1b3d f7fe 8dbc
000002d0: 7233 5e3c a0fa 14bb ea6e 90bb 6c42 3f3c
000002e0: 8453 80ba 5ab3 b2bc 2f4b 103b 5806 263d
000002f0: 9580 243c 8560 1e3b 1dc8 67bc 633b 413c
00000300: be01 093c 16e8 a2bc 69d9 a0bc c89e debb
00000310: 56fc 103a 5f37 c23a ebc0 113c 5ef3 ea3c
00000320: 3ac1 583d 0a5d c8bb 9748 0e3c 7470 d23b
00000330: c671 593a c7c4 643c f0bb 7a3c ecd6 a93c
00000340: 4a8e 403d af9d 453d a966 8d3c c84a a23c
00000350: 7e1b 1b3d 2d36 063d dd40 393d a294 b2bc
00000360: c977 72bb 9bd1 503d 907f c73c e1fe 023c
00000370: 8bbd 293d 24f2 05bc b2d4 b33a ccb6 c4bb
00000380: a927 b7bc c548 243d aebc 9c3c 7485 953b
00000390: ced7 ee3c f387 153d 4942 1536 70db 86bb
000003a0: 7aec 493b 02ab b13c f677 69bc be33 133c
000003b0: 64ad f43a 5615 833b db26 f03c 9059 c13c
000003c0: 1dc0 bd39 4085 f1bc c764 1f3d 1b7a f5bc
000003d0: 2ac7 143c 269f 87bc fadf e83c fd91 723c
000003e0: bb34 523d 299d b5bb 7c0d 473d e45b b8bc
000003f0: 83b6 393d ed58 1a3d 077a 8d3b dd04 e1bb

action_model._continuous_distribution.mu.bias f4 [2]
-0.038193874 0.08152554
00000000: 2e71 1cbd ddf6 a63d
