Assets/Models/8x8/MoveAgent 8x8.onnx (onnx, 297963 bytes, 7 tensors)

network_body._body_endoder.seq_layers.0.weight f4 [256, 29]
-0.118306555 -0.19793671 -0.22114722 0.28099513 0.1533957 0.18572854 -0.018564645 -0.10708508
-0.02654841 0.22859374 0.13309279 -0.039116617 0.2209283 -0.15920167 0.08841597 -0.049408704
-0.37142715 0.12575203 0.040915787 0.033192623 0.11482633 0.01586058 0.24306823 0.38650286
-0.36307976 0.23666589 0.039460152 0.20143995 0.064700894 0.37035382 0.12676708 -0.16992545
-0.007303387 -0.12644877 0.0029481247 -0.046171762 0.07865344 -0.0065020914 -0.10591878 -0.16763446
-0.3244464 0.03715075 0.10184251 -0.22499852 -0.04224394 0.13891432 0.17495897 0.062112812
0.2807203 -0.043812778 -0.052120104 0.14726748 0.14737351 0.17952037 -0.5774646 0.13331442
-0.29760632 0.023463875 0.07645266 0.006779356 0.19109447 -0.23682952 0.24515869 -0.34888086
-0.28494334 0.5567789 0.028518071 -0.16991715 -0.117225274 -0.021800127 0.22145332 -0.090662
-0.37434083 -0.3542883 0.15669484 0.06971896 -0.23884231 0.24560918 -0.33073667 0.25508147
-0.017648151 -0.09724933 0.12080845 -0.2147706 -0.107232094 0.3440774 0.37611195 -0.20324284
-0.0911365 -0.17000996 -0.031277604 0.133753 0.36427382 0.3711867 0.37669158 -0.60908586
-0.21198551 0.32900152 0.04849582 0.18938506 0.0852792 -0.29618594 0.0016392551 -0.26293868
-0.046470694 0.29986608 -0.1830082 0.0048915716 0.1990847 -0.0082506975 -0.17175785 0.1723808
0.16128181 -0.35295978 -0.20598195 -0.16854492 -0.13057023 0.071125045 -0.006894202 0.17336453
-0.068877675 0.418853 -0.077258736 -0.0518468 -0.20257175 -0.005188388 -0.11524697 0.2514343
-0.06782614 0.18541972 0.28081298 0.0532515 -0.016270366 0.2402348 -0.28438878 0.019112488
-0.01343413 -0.1018466 0.01792671 0.21096942 0.12784705 -0.29854664 -0.07141579 -0.11500849
0.22922125 0.28491107 0.11692554 -0.03902994 -0.089829974 -0.1574389 0.10474756 0.07014705
0.3956324 0.32364687 0.12662992 0.14521103 0.010619246 0.30745608 -0.106356375 0.12408452
0.05895244 -0.0028074323 -0.14034177 -0.17051701 -0.065225735 -0.18705183 -0.07827721 0.090619795
0.1709891 0.11430142 -0.051639825 0.11821019 -0.2994855 -0.1854506 -0.2152432 0.105710156
-0.1886793 0.07080723 -0.17900562 -0.08853147 -0.0826727 -0.002326507 -0.048393905 0.27695924
-0.040057894 -0.037479803 -0.15997432 0.07337106 -0.27190173 0.1135179 -0.13774973 0.26326758
-0.056220714 0.19212426 -0.24347357 0.19654061 0.08601321 -0.21126321 -0.05910056 -0.17988512
0.14086531 -0.07753032 -0.22628213 0.0054539545 0.04256769 0.18228842 -0.35314164 0.111301236
0.30765003 -0.15152933 -0.39713666 -0.1354385 -0.07969762 -0.22326876 0.14634879 -0.20664966
0.02891794 0.22548665 0.10284888 -0.20265956 0.2005174 -0.16527247 0.18889502 0.032342307
-0.1282847 -0.20437844 -0.14899181 -0.2506408 0.17679967 -0.10419751 0.106961235 -0.1595117
-0.0030676739 -0.2300706 -0.122958094 0.2754113 0.34706688 -0.3332051 0.25796175 -0.34865227
-0.053919896 0.17747967 0.16225904 0.029459236 0.06841749 -0.11804677 -0.12296391 -0.17245728
-0.22890918 0.024179094 0.054431602 0.22549579 -0.046512306 0.025185563 0.09348308 -0.24682344
00000000: b54a f2bd ecaf 4abe 6b74 62be 98de 8f3e
00000010: c313 1d3e 9f2f 3e3e e214 98bc 6c4f dbbd
00000020: 0d7c d9bc 7a14 6a3e 7a49 083e bf38 20bd
00000030: 073b 623e c305 23be 6f13 b53d c860 4abd
00000040: b32b bebe 24c5 003e 5097 273d fdf4 073d
00000050: 112a eb3d 0cee 813c e1e6 783e b4e3 c53e
00000060: 97e5 b9be 8b58 723e f8a0 213d 4646 4e3e
00000070: e781 843d 049f bd3e 3bcf 013e f000 2ebe
00000080: 4051 efbb c97b 01be 5335 413b 9a1e 3dbd
00000090: 0e15 a13d 7f0f d5bb f2eb d8bd 5ea8 2bbe
000000a0: d71d a6be 632b 183d ce92 d03d 0366 66be
000000b0: fb07 2dbd 8e3f 0e3e 7228 333e 016a 7e3d
000000c0: 92ba 8f3e 0775 33bd e47b 55bd 49cd 163e
000000d0: 15e9 163e 30d4 373e b8d4 13bf 9383 083e
000000e0: db5f 98be 5037 c03c 3693 9c3d 5c25 de3b
000000f0: 45ae 433e 7083 72be e10a 7b3e 83a0 b2be
00000100: 18e4 91be 1089 0e3f bb9e e93c c3fe 2dbe
00000110: ce13 f0bd 2e96 b2bc a9c4 623e 00ad b9bd
00000120: 9aa9 bfbe 4765 b5be 9d74 203e d0c8 8e3d
00000130: 1493 74be f980 7b3e 5156 a9be 0a9a 823e
00000140: db92 90bc a82a c7bd 6c6a f73d d3ec 5bbe
00000150: 809c dbbd ea2a b03e bf91 c03e e41e 50be
00000160: c6a5 babd 1717 2ebe f21c 00bd 8cf6 083e
00000170: 1982 ba3e 2f0c be3e b8dd c03e 0ded 1bbf
00000180: bb12 59be e372 a83e 8ea3 463d 28ee 413e
00000190: dca6 ae3d afa5 97be 46dc d63a e69f 86be
000001a0: 0e58 3ebd 0c88 993e 8066 3bbe 7a49 a03b
000001b0: dcdc 4b3e ef2d 07bc 4ae1 2fbe 9884 303e
000001c0: 0f27 253e 25b7 b4be efec 52be 0a97 2cbe
000001d0: 34b4 05be 02aa 913d c2e8 e1bb 7986 313e
000001e0: bd0f 8dbd e773 d63e d439 9ebd 4f5d 54bd
000001f0: f86e 4fbe 5a03 aabb 9a06 ecbd ffbb 803e
00000200: 6ee8 8abd abde 3d3e b8c6 8f3e 3f1e 5a3d
00000210: 6e49 85bc 1d00 763e 689b 91be cb91 9c3c
00000220: d31a 5cbc f394 d0bd 09db 923c 5e08 583e
00000230: 56ea 023e 1bdb 98be 7142 92bd 9289 ebbd
00000240: fab8 6a3e dddf 913e a876 ef3d dcdd 1fbd
00000250: c7f8 b7bd aa37 21be e485 d63d 42a9 8f3d
00000260: 5490 ca3e 0bb5 a53e 46ab 013e 33b2 143e
00000270: 59fc 2d3c e26a 9d3e 5fd1 d9bd 0620 fe3d
00000280: 1d78 713d e6fc 37bb c1b5 0fbe 039c 2ebe
00000290: 1295 85bd 848a 3fbe cd4f a0bd df96 b93d
000002a0: c417 2f3e dd16 ea3d 4884 53bd 2f18 f23d
000002b0: 2a56 99be c3e6 3dbe b768 5cbe 917e d83d
000002c0: 2535 41be 6203 913d 404d 37be fd4f b5bd
000002d0: 4e50 a9bd 4f78 18bb b038 46bd 9acd 8d3e
000002e0: bf13 24bd 6c84 19bd 4fd0 23be 9143 963d
000002f0: b436 8bbe 137c e83d 440e 0dbe 02cb 863e
00000300: b147 66bd 39bc 443e 2351 79be f141 493e
00000310: b227 b03d 6255 58be 6e13 72bd ce33 38be
00000320: ff3e 103e 37c8 9ebd 81b6 67be 16b7 b23b
00000330: 755b 2e3d d1a9 3a3e fbce b4be e7f1 e33d
00000340: 4e84 9d3e 812a 1bbe 7f55 cbbe 64b0 0abe
00000350: 8138 a3bd 91a0 64be 75dc 153e f89b 53be
00000360: 51e5 ec3c f9e5 663e 6fa2 d23d fd85 4fbe
00000370: 6f54 4d3e 303d 29be b26d 413e 5e79 043d
00000380: 105d 03be 9548 51be 4f91 18be fe53 80be
00000390: f90a 353e 8165 d5bd 7e0e db3d 0957 23be
000003a0: 070b 49bb a197 6bbe 74d1 fbbd b602 8d3e
000003b0: c0b2 b13e dc99 aabe 9013 843e 8d82 b2be
000003c0: 1cdb 5cbd 3bbd 353e 3c27 263e 7f54 f13c
000003d0: 781e 8c3d 81c2 f1bd 81d4 fbbd a498 30be
000003e0: 2b67 6abe 3c13 c63c acf3 5e3d 5ee8 663e
000003f0: b083 3ebd f451 ce3c 0f74 bf3d 49bf 7cbe

network_body._body_endoder.seq_layers.0.bias f4 [256]
-0.06338737 -0.025172148 -0.004360832 -0.022719812 -0.048338264 -0.010214961 0.08897074 -0.004524147
-0.086635575 -0.06383565 -0.007567764 0.016046282 0.0049823695 -0.017551398 -0.08867898 -0.020432057
-0.065842494 0.04477308 -0.07780122 -0.0061081713 -0.00056609494 -0.006972803 -0.027682737 -0.0033634459
-0.011353146 -0.03908 -0.017037746 0.0100293765 -0.00011518633 0.013360164 -0.061500367 -0.01706993
-0.020200603 -0.038724802 -0.0599158 -0.00078196375 -0.020654617 0.050717115 0.04219007 -0.028463122
0.03627207 -0.03359462 -0.044983257 0.02720821 0.0018418586 0.035861738 0.029098228 -0.018350735
-0.03723766 -0.009560182 0.015246326 0.003057135 -0.011485562 -0.038216956 -0.016027188 -0.041172568
-0.010162784 0.0020870354 -0.033216324 -0.02991251 0.0023513087 -0.0058800303 -0.10087099 0.025326263
0.04682787 -0.06966722 0.043874674 -0.039851546 0.006254163 -0.042685803 0.014847393 0.013830845
-0.036837503 -0.0048697228 0.008141913 -0.046941847 0.048616968 -0.056236472 -0.022680473 0.010711125
-0.045826003 0.0034038592 -0.035221703 -0.02549441 -0.07354764 0.012198919 -0.041631937 -0.0014749501
-0.08328442 0.018101688 0.0011165884 -0.08895448 -0.07587968 -0.046139196 -0.028490895 -0.004566843
-0.03927182 -0.0480791 0.012958701 0.029246105 -0.025909945 0.011571093 -0.053706083 -0.07405046
-0.003588905 -0.0019176651 -0.06822982 -0.056098897 -0.012611308 -0.04746606 -0.04478495 -0.08638126
0.03078812 -0.013360451 0.011736763 -0.044488817 0.00805395 -0.009284747 0.0002092903 -0.025501197
-0.020805402 0.041955344 -0.047272425 -0.04927219 0.03328751 0.015743794 -0.023295857 -0.0012139529
0.04898651 -0.047287017 -0.038202222 -0.037699897 -0.028523806 0.018297842 -0.02803211 -0.10078383
-0.04339246 -0.053125378 0.07573822 0.0096671125 -0.051300105 -0.038649395 0.02757417 0.03705965
-0.02101146 0.022400009 -0.042017363 0.055343185 -0.013299501 -0.038072057 0.011541117 -0.009723407
0.018892094 -0.045530986 0.04288239 -0.051147703 -0.026223013 -0.03688573 0.011594928 0.01817826
0.011590624 0.034531835 0.03205831 -0.08068221 0.028500928 0.00761206 -0.02443608 0.008912537
-0.041759487 -0.014854203 0.03901691 -0.034714144 0.0038422572 0.011190937 -0.0017671266 -0.017334765
-0.027743788 -0.038477365 -0.058265593 0.05932019 -0.019473992 0.0038151166 0.027522625 0.035069987
-0.021095289 0.0016281253 -0.04724342 -0.05849176 0.000172433 -0.03891627 0.026808104 -0.056729782
-0.031823173 -0.015468514 -0.059199397 0.021816388 -0.0083704395 0.011098796 0.01271306 -0.019699743
0.01592359 0.022484962 0.025871018 0.00578865 0.04813631 -0.022207221 0.06574691 -0.0014143835
-0.020092046 -0.028190294 0.044160668 -0.0051783025 0.0044073975 -0.03748492 -0.0012860034 0.013923392
-0.017594492 -0.026684865 -0.055209544 0.024816558 -0.011311317 -0.0434001 0.023227608 -0.0514973
-0.0034791522 0.061897647 0.0023875881 -0.060246706 -0.03824251 -0.056551266 -0.011033822 -0.018742023
0.040247876 0.004145346 0.011312629 -0.005921153 -0.000767593 0.0011249282 -0.07690413 0.036244918
0.010036092 -0.0024854636 0.021352723 -0.024385707 0.074995086 0.09076658 -0.07024464 0.048007976
0.043199062 -0.043172903 0.03751282 -0.016280938 -0.04096107 -0.10206514 -0.08855861 -0.00633156
00000000: 3dd1 81bd d235 cebc 4fe5 8ebb e61e babc
00000010: 58fe 45bd a75c 27bc 4b36 b63d 4c3f 94bb
00000020: fe6d b1bd 44bc 82bd 01fb f7bb 7e73 833c
00000030: 2543 a33b f3c7 8fbc 539d b5bd 2161 a7bc
00000040: 6ed8 86bd fa63 373d 3f56 9fbd 0e27 c8bb
00000050: fd65 14ba 1c7c e4bb e8c6 e2bc 426d 5cbb
00000060: 8c02 3abc 5a12 20bd be92 8bbc 4152 243c
00000070: 3190 f1b8 97e4 5a3c cfe7 7bbd 3dd6 8bbc
00000080: bc7b a5bc e69d 1ebd 456a 75bd b3fc 4cba
00000090: df33 a9bc c0bc 4f3d 7fcf 2c3d 7e2b e9bc
000000a0: 0692 143d 839a 09bd 5d40 38bd c1e3 de3c
000000b0: 856a f13a c2e3 123d 685f ee3c 4854 96bc
000000c0: 8486 18bd 4fa2 1cbc bacb 793c 375a 483b
000000d0: f02d 3cbc 6289 1cbd 734b 83bc 91a4 28bd
000000e0: ce81 26bc a5c6 083b d70d 08bd 150b f5bc
000000f0: 6a18 1a3b 45ad c0bb 7395 cebd 0679 cf3c
00000100: 95ce 3f3d b0ad 8ebd eeb5 333d 603b 23bd
00000110: b9ef cc3b 4fd7 2ebd 7b42 733c c59a 623c
00000120: ece2 16bd 3292 9fbb a965 053c 1846 40bd
00000130: 9622 473d 3758 66bd 66cc b9bc b77d 2f3c
00000140: 0cb4 3bbd 4813 5f3b a244 10bd a7d9 d0bc
00000150: 25a0 96bd fadd 473c 4086 2abd 1d53 c1ba
00000160: 0691 aabd fe49 943c 7d5a 923a c42d b6bd
00000170: ce66 9bbd 74fc 3cbd bd65 e9bc 75a5 95bb
00000180: 7ddb 20bd 97ee 44bd bb50 543c 8795 ef3c
00000190: 1841 d4bc af94 3d3c e9fa 5bbd c4a7 97bd
000001a0: d633 6bbb 2a5a fbba 13bc 8bbd f5c7 65bd
000001b0: a99f 4ebc c56b 42bd 6c70 37bd a8e8 b0bd
000001c0: 5e37 fc3c cbe5 5abc 8d4b 403c e839 36bd
000001d0: b7f4 033c 0d1f 18bc f074 5b39 e3e7 d0bc
000001e0: 1770 aabc 5ed9 2b3d bba0 41bd a3d1 49bd
000001f0: 7c58 083d 21f9 803c f4d6 bebc 801d 9fba
00000200: 14a6 483d 08b0 41bd ef79 1cbd 356b 1abd
00000210: c2aa e9bc 5be5 953c 98a3 e5bc c167 cebd
00000220: 4bbc 31bd ff99 59bd a41c 9b3d cf62 1e3c
00000230: 0f20 52bd d44e 1ebd 3ae3 e13c dccb 173d
00000240: 3a20 acbc 3980 b73c 661a 2cbd 89af 623d
00000250: 26e6 59bc 72f1 1bbd f416 3d3c ed4e 1fbc
00000260: 98c3 9a3c b37e 3abd 72a5 2f3d 4180 51bd
00000270: a5d1 d6bc 7e15 17bd a7f8 3d3c 93ea 943c
00000280: 9ae6 3d3c 4171 0d3d 934f 033d b73c a5bd
00000290: c77a e93c 966e f93b 2d2e c8bc e405 123c
000002a0: ff0b 2bbd 0b5f 73bc 32d0 1f3d 6b30 0ebd
000002b0: 61ce 7b3b 315a 373c ee9e e7ba a301 8ebc
000002c0: f146 e3bc 719a 1dbd e7a7 6ebd baf9 723d
000002d0: ec87 9fbc 0907 7a3b 2177 e13c 8ca5 0f3d
000002e0: 07d0 acbc d266 d53a 5182 41bd 0e95 6fbd
000002f0: 22cf 3439 ab66 1fbd ab9c db3c 7d5d 68bd
00000300: 0459 02bd a66f 7dbc 117b 72bd 48b8 b23c
00000310: 2b24 09bc b9d7 353c 704a 503c 5b61 a1bc
00000320: 3072 823c 6232 b83c 75ef d33c b7ae bd3b
00000330: 942a 453d ebeb b5bc 51a6 863d d662 b9ba
00000340: 1398 a4bc 55ef e6bc d1e1 343d c0ae a9bb
00000350: ee6b 903b ca89 19bd 1d8f a8ba f01e 643c
00000360: 5322 90bc 389a dabc 6723 62bd 184c cb3c
00000370: 1a53 39bc 4ec4 31bd d347 be3c d5ee 52bd
00000380: 7d02 64bb 6388 7d3d 1579 1c3b 40c5 76bd
00000390: 2ea4 1cbd 4da2 67bd 34c7 34bc df88 99bc
000003a0: f5da 243d afd5 873b 9b58 393c 3b06 c2bb
000003b0: 4b38 49ba 5472 933a ea7f 9dbd 8d75 143d
000003c0: 6c6e 243c 29e3 22bb e8eb ae3c 89c4 c7bc
000003d0: 0697 993d d4e3 b93d 6cdc 8fbd 03a4 443d
000003e0: 80f1 303d 12d6 30bd 0ba7 193d 9a5f 85bc
000003f0: ccc6 27bd 8707 d1bd 375e b5bd fa78 cfbb

network_body._body_endoder.seq_layers.2.weight f4 [256, 256]
-0.06268586 -0.09480749 0.026530603 0.013227127 -0.09100168 0.050676208 0.049326565 0.006714132
0.01901326 0.010087158 -0.12752472 -0.027426055 -0.008347176 0.049466632 0.024599068 0.021023791
-0.077085465 0.066232115 -0.041620318 -0.049145006 -0.062088743 -0.047132317 -0.0806447 0.07719708
0.11828057 -0.069791205 -0.124239966 -0.036276557 -0.07899897 0.011129237 -0.05703353 -0.031972744
0.13165496 0.05889656 -0.070709236 0.08363324 0.07309425 0.021504505 -0.026147315 0.001593101
-0.039182104 0.037188005 0.054634545 0.021612564 -0.11205424 0.14779285 0.029382572 -0.08698841
-0.14770626 -0.097105786 7.266886e-05 0.060119864 -0.14379486 0.014224327 0.0639943 -0.07409835
-0.018566923 -0.05110259 0.07851443 0.062374998 -0.011495425 -0.07395483 0.07930358 0.06266442
0.040317997 0.0014383134 -0.040002346 0.045552757 0.072405525 -0.04483066 0.05662753 -0.09430741
0.025255715 0.03846464 0.015276174 -0.10820037 0.03993501 0.078045025 0.07159413 -0.0327049
-0.15473227 0.16116492 0.02923856 -0.018681008 -0.040663958 0.047487736 0.013342842 0.044474456
-0.116928935 0.032022726 -0.20577464 -0.01684016 -0.05719194 -0.007310544 0.072449125 -0.05686406
-0.08896239 -0.12300602 -0.014745754 -0.051480565 -0.060605466 -0.021170154 -0.04008295 0.016868595
-0.10148674 -0.02240019 -0.03555186 -0.045387853 -0.118118145 0.0006987684 -0.004953487 0.013135197
0.10209916 0.035563547 -0.026222346 -0.034717724 0.05752933 0.07491031 -0.0328964 -0.08130072
-0.017504489 -0.08402093 0.10591254 -0.13064966 -0.016032802 -0.009411638 -0.11685497 0.12173216
-0.070346475 -0.108242966 0.13713612 -0.13013548 -0.09415881 -0.05045156 -0.07649901 -0.09041661
0.09130753 -0.103486925 -0.07153044 0.079266645 -0.036907937 -0.024970502 0.11350551 -0.08298614
-0.17958899 0.015906071 -0.06597446 -0.02582374 0.016478088 -0.11235617 0.048219964 -0.08529461
-0.10362586 0.005327287 0.07557059 0.012406473 -0.0077469344 0.00014723073 0.023214703 0.027560875
0.032616455 0.07870467 0.08690594 0.065303154 -0.07501356 0.036221065 -0.027257776 -0.10936218
-0.09678619 -0.020252155 0.06669246 0.033909332 0.052073 -0.08455964 0.016875356 -0.09492798
0.009038217 -0.05911632 -0.04273255 0.06393845 -0.043995343 0.06266575 -0.07044897 0.009276893
-0.018101957 -0.0326207 -0.03577932 0.032016877 0.078180164 -0.049939703 -0.011569278 -0.04507102
0.0014144952 0.11227539 0.00622529 -0.12731205 -0.11275058 0.11546298 -0.03386519 -0.028964477
0.13217323 0.13893898 -0.0066840816 0.03464466 -0.02640109 -0.058984924 0.115605846 -0.073515415
-0.0038914853 0.010362582 0.029893449 -0.09168868 -0.06566681 -0.012234241 0.0937205 0.02974279
-0.032125834 0.09405135 0.14034086 0.00039133738 -0.09884154 -0.093735 0.2038404 -0.102781765
-0.064642005 0.10031548 -0.11667158 0.030578805 0.20360136 0.062710166 0.027774513 -0.1523939
-0.05649598 0.06310313 -0.00663267 -0.023595594 -0.07388064 -0.10421562 0.06118264 0.11817201
-0.08808265 -0.018068139 -0.13242306 -0.00638684 0.12014382 0.08267175 0.09866772 0.15436846
-0.12309659 0.10019039 0.09582093 0.06044345 -0.046160627 -0.11054195 -0.037077226 0.16479242
00000000: 7261 80bd 6e2a c2bd b556 d93c 97b6 583c
00000010: 175f babd db91 4f3d a70a 4a3d 3902 dc3b
00000020: b2c1 9b3c 9b44 253c d795 02be 9bac e0bc
00000030: 98c2 08bc 869d 4a3d fc83 c93c 163a ac3c
00000040: fcde 9dbd b4a4 873d 117a 2abd 464c 49bd
00000050: c450 7ebd d10d 41bd 0c29 a5bd 8119 9e3d
00000060: 153d f23d b1ee 8ebd 8671 febd ba96 14bd
00000070: 36ca a1bd 6757 363c fe9b 69bd daf5 02bd
00000080: 8fd0 063e 853d 713d 01d0 90bd e747 ab3d
00000090: 70b2 953d 372a b03c e532 d6bc 99cf d03a
000000a0: 6a7d 20bd 7352 183d 79c8 5f3d d50c b13c
000000b0: b27c e5bd 0257 173e b8b3 f03c fb26 b2bd
000000c0: 4f40 17be 66df c6bd cc65 9838 3f40 763d
000000d0: f63e 13be 270d 693c 720f 833d e0c0 97bd
000000e0: a919 98bc f350 51bd 2ccc a03d ed7c 7f3d
000000f0: 4f57 3cbc a175 97bd ea69 a23d 3456 803d
00000100: 7c24 253d ca85 bc3a 80d9 23bd 8795 3a3d
00000110: 5949 943d 5ba0 37bd 45f2 673d 3e24 c1bd
00000120: 13e5 ce3c 198d 1d3d eb48 7a3c 2898 ddbd
00000130: e592 233d 12d6 9f3d f19f 923d 93f5 05bd
00000140: 2372 1ebe 6b08 253e b485 ef3c ea08 99bc
00000150: 408f 26bd 8082 423d f09b 5a3c d92a 363d
00000160: 7078 efbd 432a 033d 96b6 52be 60f4 89bc
00000170: 1842 6abd 4a8d efbb 3560 943d 4aea 68bd
00000180: ea31 b6bd 95ea fbbd 2d98 71bc 49dd 52bd
00000190: 703d 78bd 086d adbc 052e 24bd 0230 8a3c
000001a0: 48d8 cfbd 9a80 b7bc d49e 11bd 9de8 39bd
000001b0: ede7 f1bd 8e2d 373a dc50 a2bb 0235 573c
000001c0: 5d19 d13d 15ab 113d 3fd0 d6bc 2c34 0ebd
000001d0: e0a3 6b3d 946a 993d 60be 06bd fe80 a6bd
000001e0: 9365 8fbc 2a13 acbd ace8 d83d 06c9 05be
000001f0: 3957 83bc 4533 1abc a951 efbd b64e f93d
00000200: d011 90bd 7dae ddbd 696d 0c3e 3c42 05be
00000210: 56d6 c0bd 4ca6 4ebd 83ab 9cbd 582c b9bd
00000220: 71ff ba3d f4f0 d3bd 8d7e 92bd 8d56 a23d
00000230: c72c 17bd f08e ccbc 9475 e83d a3f4 a9bd
00000240: 2de6 37be 734d 823c 9e1d 87bd 4f8c d3bc
00000250: 0efd 863c fe1a e6bd 4c82 453d f1ae aebd
00000260: cb39 d4bd 8690 ae3b c1c4 9a3d 8544 4b3c
00000270: ffd9 fdbb f361 1a39 c32c be3c 58c7 e13c
00000280: d598 053d ea2f a13d befb b13d a9bd 853d
00000290: b6a0 99bd 8a5c 143d b34b dfbc 47f9 dfbd
000002a0: d737 c6bd d9e7 a5bc 0e96 883d 83e4 0a3d
000002b0: 804a 553d 9b2d adbd 303e 8a3c 9a69 c2bd
000002c0: 0815 143c f423 72bd 5408 2fbd 29f2 823d
000002d0: 7634 34bd e756 803d 8d47 90bd 1cfe 173c
000002e0: 8e4a 94bc 489d 05bd 568d 12bd 2124 033d
000002f0: ec1c a03d 938d 4cbd 128d 3dbc 649c 38bd
00000300: 9566 b93a a4f0 e53d 84fd cb3b 175e 02be
00000310: c7e9 e6bd db77 ec3d 3ab6 0abd e946 edbc
00000320: 6b58 073e 0546 0e3e 2406 dbbb 8fe7 0d3d
00000330: 1947 d8bc 2d9a 71bd c2c2 ec3d 408f 96bd
00000340: 4a08 7fbb d2c7 293c 1be3 f43c 46c7 bbbd
00000350: 527c 86bd 2072 48bc 89f0 bf3d 27a7 f33c
00000360: 6196 03bd ff9d c03d 84b5 0f3e 6a2c cd39
00000370: 6f6d cabd 23f8 bfbd 8abb 503e 3f7f d2bd
00000380: 0763 84bd 3472 cd3d 82f1 eebd 6780 fa3c
00000390: e07c 503e 306e 803d 6087 e33c 260d 1cbe
000003a0: 5468 67bd 373c 813d de56 d9bb 8c4b c1bc
000003b0: bc4e 97bd 006f d5bd a69a 7a3d 2b04 f23d
000003c0: ad64 b4bd a203 94bc e999 07be b248 d1bb
000003d0: f70d f63d ce4f a93d 4d12 ca3d c412 1e3e
000003e0: 111a fcbd 9f30 cd3d c43d c43d 8d93 773d
000003f0: ed12 3dbd d163 e2bd 4ade 17bd 58bf 283e

network_body._body_endoder.seq_layers.2.bias f4 [256]
-0.025702419 -0.055591732 -0.004072574 -0.023799552 -0.0043012598 -0.03636597 -0.026780307 -0.026969433
0.0039200815 -0.004569477 -0.014674596 -0.032441765 -0.011364463 -0.006369251 0.014567145 -0.026622698
0.020775784 -0.023997098 -0.05899454 -0.013039882 -0.05399721 -0.024893818 -0.017220855 -0.034426276
-0.027169565 -0.08377715 -0.025215235 -0.0024773332 -0.010954067 -0.022555385 -0.01589453 -0.011398702
-0.009382769 -0.03378246 -0.031037433 0.0008575681 -0.015257931 -0.019512253 -0.04272372 -0.015510801
-0.009391825 0.00035720575 -0.048679754 -0.018514737 -0.059755422 -0.0039191986 -0.01740072 -0.042429745
-0.019607153 -0.06271285 0.0021156897 -0.06317796 -0.037410844 -0.05101873 -0.040120013 0.0036109816
-0.0068517993 -0.033461772 -0.005312232 -0.0074812216 -0.0057428987 -0.026815446 -0.011187132 -0.046479028
-0.012923836 0.009284434 -0.02723995 0.009736708 0.005452168 -0.022819826 0.03207126 0.025405489
-0.0009608452 -0.0060563595 -0.011358775 0.0054988046 0.0038213239 -0.048714984 0.007240365 -0.04024497
-0.030948447 -0.005847514 -0.025198117 0.0098385075 0.00088321307 -0.007349917 -0.015826166 -0.011139354
0.0030671274 -0.021594144 -0.013921644 -0.027896106 -0.009141185 -0.015695255 -0.024193317 -0.0069772517
0.017336493 -0.0015710429 -0.034032583 -0.017993292 -0.04339436 -0.075853296 -0.03361742 -0.040027175
-0.0047668274 0.030542439 -0.040498734 0.017635405 -0.021232717 -0.036170997 -0.026397169 -0.044262163
-0.05779145 -0.023869613 0.0010149112 -0.023647616 -0.002102682 -0.020693853 -0.01973544 -0.03573113
-0.015955381 -0.032019947 -0.017049382 -0.0065231714 -0.0050595514 -0.0003019124 -0.027101913 -0.05890553
0.0005929802 -0.0016393488 -0.015959887 -0.0023113708 -0.0144119235 -0.035883527 -0.001079865 -0.0104407715
-0.011540912 -0.015085358 -0.04044125 0.0036534222 0.012010681 -0.02976164 -0.04294123 0.008747346
-0.021034244 -0.014191218 -0.062406726 -0.036750976 -0.010012601 -0.012244235 -0.019694341 -0.0052551082
-0.024935843 0.0018334611 -0.036925435 0.008791389 -0.026100025 -0.031282436 -0.007149791 -0.019320875
-0.062171504 -0.036720388 -0.018403195 0.016179135 -0.03070152 -0.0243339 0.0036376494 -0.0100511685
-0.012846819 0.007892713 -0.029667431 -0.019557036 -0.030177314 0.00021787816 -0.010625062 -0.044860303
-0.039411902 0.016217172 -0.019316705 -0.015168198 -0.053541392 -0.0054605487 -0.023613365 -0.027733274
-0.035243683 -0.024014322 -0.014370935 -0.03681478 -0.013097096 -0.05122417 -0.04621902 0.00022974137
0.035114948 -0.0075817634 -0.02993836 -0.0046875076 -0.016476769 -1.2123371e-05 -0.047855027 -0.013606379
-0.024418887 -0.022663757 -0.011244092 -6.314378e-05 -0.0060870578 -0.016982328 -0.0097703505 -0.02518914
-0.022903157 -0.000455571 0.005720244 -0.06414554 -0.038825765 -0.044928346 0.011441219 -0.072020866
-0.001403307 -0.04325238 -0.014492569 -0.038643956 -0.025981048 -0.010815646 -0.052788913 -0.018453369
-0.01876603 -0.052648414 -0.042679757 -0.014566147 -0.048971917 -0.008436975 -0.021478064 0.0017285524
-0.051217746 0.0061923186 -0.043086603 -0.002246483 -0.032973595 -0.011120457 -0.04392105 -0.050077826
-0.012876664 0.0026276642 -0.019501008 -0.040510885 -0.005472027 -0.029303003 -0.007040968 -0.00759897
-0.040787376 -0.009171281 -0.026751965 -0.04835598 -0.021782257 0.011708521 -0.010624124 -0.03386257
00000000: e18d d2bc 28b4 63bd 3a73 85bb 47f7 c2bc
00000010: 95f1 8cbb 7cf4 14bd 6062 dbbc 00ef dcbc
00000020: 0774 803b 8dbb 95bb b76d 70bc a8e1 04bd
00000030: 0332 3abc 26b5 d0bb 09ab 6e3c d817 dabc
00000040: fa31 aa3c 9095 c4bc 42a4 71bd 3ba5 55bc
00000050: 2e2c 5dbd 1fee cbbc c012 8dbc 9102 0dbd
00000060: b592 debc 5b93 abbd 2e90 cebc c15a 22bb
00000070: b078 33bc 12c6 b8bc 3f35 82bc 9fc1 3abc
00000080: 30ba 19bc 7a5f 0abd 3742 febc 6cce 603a
00000090: 67fc 79bc 29d8 9fbc 11ff 2ebd 0421 7ebc
000000a0: 2be0 19bc 5847 bb39 6c64 47bd 38ac 97bc
000000b0: 1ac2 74bd 9f6c 80bb f48b 8ebc d0ca 2dbd
000000c0: 2e9f a0bc 986f 80bd 62a7 0a3b 7263 81bd
000000d0: 1d3c 19bd 04f9 50bd e254 24bd 38a6 6c3b
000000e0: 0f85 e0bb 360f 09bd 3b12 aebb 0925 f5bb
000000f0: ed2e bcbb 11ac dbbc 3c4a 37bc cb60 3ebd
00000100: 7fbe 53bc bd1d 183c 5126 dfbc b786 1f3c
00000110: 1aa8 b23b a5f0 babc 275d 033d 2c1f d03c
00000120: 3be1 7bba 6d74 c6bb 281a 3abc 512f b43b
00000130: 2d6f 7a3b 5d89 47bd 9540 ed3b e9d7 24bd
00000140: 9987 fdbc 819c bfbb 486c cebc b131 213c
00000150: 6d87 673a 93d7 f0bb e0a5 81bc d681 36bc
00000160: dc01 493b 34e6 b0bc 9b17 64bc 6086 e4bc
00000170: e9c4 15bc 5693 80bc 1031 c6bc 6ea1 e4bb
00000180: 4305 8e3c 74eb cdba c065 0bbd ab66 93bc
00000190: 49be 31bd f958 9bbd 6bb2 09bd 89f3 23bd
000001a0: 0c33 9cbb 2334 fa3c 00e2 25bd 2078 903c
000001b0: 3cf0 adbc 0a28 14bd e03e d8bc 3e4c 35bd
000001c0: bab6 6cbd 358a c3bc c506 853a a5b8 c1bc
000001d0: 26cd 09bb 2886 a9bc 38ac a1bc ce5a 12bd
000001e0: dcb4 82bc 5927 03bd 25ab 8bbc 54c0 d5bb
000001f0: 98ca a5bb ff49 9eb9 d504 debc ed46 71bd
00000200: 3a72 1b3a 6bdf d6ba 4fbe 82bc 5e7a 17bb
00000210: fd1f 6cbc 9bfa 12bd 428a 8dba c50f 2bbc
00000220: 1816 3dbc 9428 77bc b9a5 25bd 416e 6f3b
00000230: 73c8 443c afce f3bc 25e3 2fbd 0751 0f3c
00000240: 0250 acbc 4882 68bc 329e 7fbd 3188 16bd
00000250: e40b 24bc 0b9c 48bc 0756 a1bc 0b33 acbb
00000260: 4146 ccbc bf50 f03a 203f 17bd c209 103c
00000270: b8cf d5bc 0322 00bd cb48 eabb d046 9ebc
00000280: 8ca7 7ebd 1e68 16bd 4cc2 96bc 1b8a 843c
00000290: c181 fbbc e357 c7bc a165 6e3b a8ad 24bc
000002a0: 777b 52bc 7050 013c 1d09 f3bc 1436 a0bc
000002b0: 6a36 f7bc 3976 6439 bd14 2ebc 70bf 37bd
000002c0: 606e 21bd e0d9 843c 113e 9ebc 0984 78bc
000002d0: 384e 5bbd 67ee b2bb d170 c1bc e430 e3bc
000002e0: ae5b 10bd afb9 c4bc 1274 6bbc 18cb 16bd
000002f0: 3495 56bc 6fd0 51bd 2850 3dbd bbe6 7039
00000300: b1d4 0f3d 7170 f8bb 4b41 f5bc aa99 99bb
00000310: 4afa 86bc 7b65 4bb7 a203 44bd 4aed 5ebc
00000320: 1e0a c8bc 58a9 b9bc 2439 38bc 0f6c 84b8
00000330: f175 c7bb 861e 8bbc d213 20bc 7559 cebc
00000340: 679f bbbc b4d9 eeb9 e270 bb3b bd5e 83bd
00000350: c407 1fbd c906 38bd f373 3b3c ad7f 93bd
00000360: 2bef b7ba 6829 31bd 3d72 6dbc 2049 1ebd
00000370: 35d6 d4bc 1b34 31bc 3039 58bd 852b 97bc
00000380: 38bb 99bc dda5 57bd f8d0 2ebd d9a6 6ebc
00000390: c796 48bd 3d3b 0abc c4f2 afbc 9890 e23a
000003a0: b3c9 51bd efe8 ca3b 947b 30bd bb39 13bb
000003b0: 520f 07bd 9432 36bc 8fe6 33bd 681e 4dbd
000003c0: a5f8 52bc e434 2c3b 94c0 9fbc beee 25bd
000003d0: b14e b3bb da0c f0bc ecb7 e6bb c800 f9bb
000003e0: aa10 27bd 2443 16bc f026 dbbc ec10 46bd
000003f0: b470 b2bc 19d5 3f3c ce10 2ebc 7ab3 0abd

action_model._continuous_distribution.log_sigma f4 [1, 2]
-0.22929727 -0.13610294
00000000: e7cc 6abe 925e 0bbe

action_model._continuous_distribution.mu.weight f4 [2, 256]
-0.01491313 -0.0065523386 0.0022562756 -0.0006149665 -0.034596976 -0.06251808 -0.0031754908 -0.043079074
-0.020096358 0.032346472 -0.003741412 0.012845984 0.0517436 -0.021811593 -0.08575167 -0.019277863
0.030020874 -0.1537481 0.010852673 -0.0015496388 -0.045098647 -0.011771856 0.040668033 0.017544637
-0.018190565 -0.04553769 -0.014504479 -0.09150114 -0.052100252 -0.0058110165 -0.017741889 0.008466173
-0.026914632 -0.03327886 -0.021641098 0.0029822458 -0.035499703 -0.013876584 -0.013486117 -0.08728179
0.03385287 -0.056563247 -0.017066453 -0.012545503 -0.049145266 -0.0059382855 0.0026877979 -0.077764496
0.07855626 -0.03633929 -0.062480696 0.012661895 -0.028533872 -0.0034345675 -0.004818294 -0.071589924
-0.043485813 -0.019956013 -0.00071347016 0.0031357838 0.064458355 -0.0695345 -0.013508816 -0.06797483
-0.011142564 0.038011365 0.02146381 -0.08044939 0.0030897066 0.024775343 0.053727824 0.04434424
-0.043962292 0.021414774 -0.0031237598 0.033879753 -0.0014211693 -0.09075526 -0.00821554 -0.09683439
-0.0016424027 0.043848082 -0.043218404 -0.09362228 -0.049342588 0.009683078 0.0009877688 0.028639577
-0.018386206 -0.00019463997 -0.0036474161 -0.0046036863 -0.06679294 0.01944207 0.0039857584 -0.01901091
0.017047344 0.022347525 -0.041345406 0.055948485 -0.0036754452 -0.030270398 0.0032832962 -0.00081785675
0.034151725 0.04082094 -0.009837826 -0.07701844 -0.0057944525 -0.012107727 0.011761623 -0.034014903
-0.012429199 -0.06916679 0.011550152 -0.037913993 0.039520077 0.0039018656 -0.025287353 -0.002514639
0.023357851 0.026418442 -0.0069540255 -0.016067306 0.012289352 -0.04579705 -0.0047944547 -0.06126709
0.012467518 0.0043103863 -0.011173206 0.0020842378 0.038805977 0.04358427 0.013966845 0.045876384
0.0012319718 -0.01053235 -0.01277804 0.02237479 -0.018817049 -0.049191196 -0.013336729 -0.10125442
-0.013348553 -0.055530783 -0.011347036 0.027985634 -0.029217657 -0.0011529144 0.013095308 -0.003272853
-0.04526255 0.022126073 0.017406676 0.011071193 -0.021920292 -0.0745077 -0.03398583 0.024368465
-0.02283847 0.024076296 0.013843312 -0.023199901 0.038284548 0.0034573842 0.018297607 -0.05725465
-0.04624434 -0.07458447 -0.027769359 0.014398174 -0.057381462 -0.033282448 -0.052983783 -0.016901338
-0.023503248 0.018935416 -0.01440133 -0.031249288 -0.0280149 0.008495338 -0.008646742 -0.008331067
-0.007752031 -0.017287524 0.050927095 0.02195497 -0.029161092 -0.02999289 -0.049504716 -0.03148814
0.04544436 -0.0063091097 -0.00496229 0.024970714 0.03226609 -0.050639424 -0.054721136 0.057138186
0.033544473 0.009298228 0.010386969 0.0033993684 0.0016632259 0.013513195 -0.03945058 -0.013252
-0.042800866 0.06092973 -0.06334292 -0.05730176 -0.037020788 -0.0026760965 -0.076095596 -0.013929145
0.017992338 -0.0008796677 0.011987451 -0.020321157 -0.06671247 -0.0056072515 0.007782345 -0.09809474
-0.037525184 -0.026441457 -0.08229488 0.08092229 -0.030181417 -0.04081729 -0.037534524 -0.060978755
-0.063336186 -0.06824381 -0.0015846646 0.0061336746 -0.007280392 0.019946842 -0.101405576 -0.00754415
-0.011094337 0.04868462 -0.04609763 -0.039246026 -0.023101842 -0.052680466 -0.018646508 -0.03344925
0.017283631 0.0023366942 -0.03870559 -0.012671018 0.036698718 0.02278461 -0.030210063 -0.0039604153
00000000: 3356 74bc 00b5 d6bb 06de 133b b435 21ba
00000010: 8fb5 0dbd 7b09 80bd e51b 50bb af73 30bd
00000020: 1ea1 a4bc bc7d 043d 7a32 75bb f677 523c
00000030: 19f1 533d 3aae b2bc 929e afbd 9cec 9dbc
00000040: 56ee f53c 2470 1dbe 69cf 313c 401d cbba
00000050: 5cb9 38bd bede 40bc 8693 263d c5b9 8f3c
00000060: 6104 95bc bb85 3abd 32a4 6dbc f364 bbbd
00000070: 1367 55bd 576a bebb 7057 91bc b4b5 0a3c
00000080: 137c dcbc 6a4f 08bd ac48 b1bc c871 433b
00000090: 2368 11bd 9d5a 63bc e0f4 5cbc ccc0 b2bd
000000a0: 4fa9 0a3d ddae 67bd f2ce 8bbc a78b 4dbc
000000b0: 8c4c 49bd f395 c2bb c425 303b fe42 9fbd
000000c0: 1be2 a03d 82d8 14bd c2eb 7fbd d673 4f3c
000000d0: debf e9bc 7b16 61bb c8e2 9dbb bd9d 92bd
000000e0: 2e1e 32bd cb7a a3bc 2c08 3bba b981 4d3b
000000f0: be02 843d 1b68 8ebd 1554 5dbc 6336 8bbd
00000100: 4d8f 36bc ceb1 1b3d dfd4 af3c a6c2 a4bd
00000110: ad7c 4a3b a9f5 ca3c b511 5c3d 4ea2 353d
00000120: ce11 34bd 096e af3c feb7 4cbb 7fc5 0a3d
00000130: 8746 baba e5dd b9bd 799a 06bc 1c51 c6bd
00000140: e445 d7ba 0c9a 333d c805 31bd 0abd bfbd
00000150: 741b 4abd c6a5 1e3c 0578 813a 8c9d ea3c
00000160: ab9e 96bc 4518 4cb9 7d09 6fbb 85da 96bb
00000170: bdca 88bd fa44 9f3c f79a 823b c5bc 9bbc
00000180: dfa6 8b3c 2812 b73c cd59 29bd 3d2a 653d
00000190: bddf 70bb a0f9 f7bc 922c 573b 7065 56ba
000001a0: aee2 0b3d dc33 273d d52e 21bc d8bb 9dbd
000001b0: 64df bdbb 7d5f 46bc d3b3 403c 3653 0bbd
000001c0: d7a3 4bbc 51a7 8dbd d93c 3d3c b44b 1bbd
000001d0: cedf 213d 71b6 7f3b 6c27 cfbc a4cc 24bb
000001e0: f758 bf3c 7d6b d83c 98de e3bb 959f 83bc
000001f0: 4759 493c b095 3bbd cd1a 9dbb 33f3 7abd
00000200: 9044 4c3c 243e 8d3b d30f 37bc b597 083b
00000210: 04f3 1e3d 6b85 323d 32d5 643c e0e8 3b3d
00000220: 1d7a a13a e18f 2cbc fc5a 51bc 564b b73c
00000230: 3626 9abc b57c 49bd 4c82 5abc 7a5e cfbd
00000240: e4b3 5abc 3f74 63bd ebe8 39bc 2142 e53c
00000250: de59 efbc 631d 97ba b48d 563c 5d7d 56bb
00000260: 3965 39bd bd41 b53c 7298 8e3c f363 353c
00000270: 2f92 b3bc 7e97 98bd ba34 0bbd 60a0 c73c
00000280: be17 bbbc a73b c53c 0fcf 623c b80d bebc
00000290: 42d0 1c3d 4895 623b dde4 953c da83 6abd
000002a0: b46a 3dbd bebf 98bd 917c e3bc 52e6 6b3c
000002b0: d308 6bbd 2d53 08bd 8605 59bd ad74 8abc
000002c0: e289 c0bc 721e 9b3c 8ef3 6bbc 82fe ffbc
000002d0: 817f e5bc 0830 0b3c 11ab 0dbc 077f 08bc
000002e0: c004 febb 919e 8dbc ee98 503d e9da b33c
000002f0: 3ee3 eebc a6b3 f5bc 75c5 4abd b5f9 00bd
00000300: dd23 3a3d a6bc cebb b59a a2bb 628f cc3c
00000310: 7329 043d 496b 4fbd 4523 60bd bb09 6a3d
00000320: ee65 093d 9857 183c 1b2e 2a3c f0c7 5e3b
00000330: 9a00 da3a 7366 5d3c ee96 21bd eb1e 59bc
00000340: f64f 2fbd 7491 793d efb9 81bd 40b5 6abd
00000350: 1ca3 17bd 7361 2fbb 02d8 9bbd 1237 64bc
00000360: ab64 933c 8099 66ba 0467 443c 8e78 a6bc
00000370: 8ca0 88bd 09bd b7bb 0b03 ff3b e5e5 c8bd
00000380: 02b4 19bd c19b d8bc 388a a8bd 96ba a53d
00000390: 053f f7bc 0830 27bd cdbd 19bd dcc4 79bd
000003a0: 67b6 81bd 69c3 8bbd 85b4 cfba fefc c83b
000003b0: 5b90 eebb 8f67 a33c baad cfbd eb34 f7bb
000003c0: 06c5 35bc 8669 473d ded0 3cbd 71c0 20bd
000003d0: 1340 bdbc 79c7 57bd 90c0 98bc 1502 09bd
000003e0: 6796 8d3c 3923 193b c189 1ebd 1a9a 4fbc
000003f0: 6551 163d caa6 ba3c 187b f7bc 5fc6 81bb

action_model._continuous_distribution.mu.bias f4 [2]
0.047385696 0.078189984
00000000: 8117 423d 1222 a03d
