Assets/Models/6x6/6x6.onnx (onnx, 297963 bytes, 7 tensors)

network_body._body_endoder.seq_layers.0.weight f4 [256, 29]
00000000: 0b4f 843c 426e 40be 7200 143d 322e 91bd
00000010: 0e23 023e 2c17 ee3d cc34 d7bd a2cf aa3e
00000020: 7932 55bd 92eb 8bbd d08d f23c dd8a 84bd
00000030: 9c21 213e 5b76 13be dbd2 3ebe 6815 ec3c
00000040: 76be 9a3d 4a4f ae3c d849 de3d 6ab8 fd3d
00000050: 5f8e 453e 7398 6c3d 6fa9 c13d 324d b4ba
00000060: c4ae 81be 77f1 2cbe c5f1 3bbd d23d acbd
00000070: 50c4 3bbe 9c5b 70be 3bad bb3d 605e c3bc
00000080: e297 7f3e 9503 fb3e 14d9 32be 67b6 1dbd
00000090: 2981 98be 879d 61bd 4215 43be 19de 66bb
000000a0: f1a0 40be 2fb5 973e 50b3 8bbd 5008 0bbe
000000b0: b674 503e 8c5e 8abc 3b09 c8bd b853 6fbe
000000c0: 7b16 49be c424 2b3d 38e6 31bc 9a38 283e
000000d0: b7a4 1abe f1c3 4cbe 5fdb 463d 0fa5 52be
000000e0: 1b3c 89bc 4ea3 9c3e cc82 0abe efa5 803e
000000f0: d70b 8d3d c6e9 66be e251 4ebd 97b3 15be
00000100: 6542 8d3e 936b 9b3e 52a1 94be 5856 0fbf
00000110: 7e2a 1bbd 5c5e 453e 5841 86bd 542f 1d3e
00000120: 391e 8b3d b3fa 35be 9e90 4cbe c959 183e
00000130: bf01 853e eed5 c83d 2e0d 663e 1e6a 4fbe
00000140: bd3b 25be 14ba 50bd 0234 68be e7ae 10bd
00000150: 5f23 593e 7a2a 023e 4d9b 043e 1a8f 483e
00000160: a18f 3abe 8b99 58be ccd0 073d 622e 8f3e
00000170: 3ddc 843d b4dd 1dbe 259b 8a3e 9450 2b3d
00000180: 5ef4 18bd 613e 933d 2aa9 19bd 8b24 373e
00000190: 8944 62bd 4cbb 41be f9f3 e9bd 6bfb 5ebe
000001a0: 5085 973d 9988 883e ac82 47be 0cb6 28bd
000001b0: 2220 9e3d d2dd 14be 1c83 54bd e427 de3b
000001c0: d8f4 973e 8672 43be 8b7a 8f3d 8500 30bd
000001d0: c109 883e 88a3 033e ec76 16bd 695c 3fbe
000001e0: 46e3 2abd d7b0 903d 9837 7cbd 0d1d c13d
000001f0: 3274 71be 885f ecbb 92d6 533e 2ba4 873e
00000200: 717d 493e 0f57 163d 7dca 48be 6a05 423e
00000210: d076 173d 21ce c83d ae33 98be 2e99 b13e
00000220: b279 713d 7cf8 0ebe 77ed a1be fc40 0abe
00000230: aee4 8c3e 681e 7bbe f5d3 a7bd a9eb b9be
00000240: 0945 033f 425c 11be c7ca 4a3e 7162 903d
00000250: 66f0 7b3e 7620 ca3d 0b74 be3d 28af f23d
00000260: 26a9 d63c b381 543e 7c62 f7bc ee4a 953d
00000270: ea95 073e 4680 ea3d 32c5 4f3d d3a2 f63c
00000280: c909 83be 31c8 edbd dfa9 5a3e 9d41 373e
00000290: 40df a43e 7f15 debe df35 c6bd 9574 ed3c
000002a0: 5f42 59bd 764a 0b3d 726d 93be 92a7 043e
000002b0: 79d4 0a3e ad5c d4bd 2558 ad3d 3df7 9bbc
000002c0: dc19 813d 3b68 483c 2242 bfbd 623d 633c
000002d0: 75f6 483e d375 72be e1db 1cbd 6d48 373b
000002e0: 56dc e53d 02b8 a7be ffb0 87be 9bfc 68bd
000002f0: 86af f43d ef6a c3be 13b8 c1bd c0ee 3dbe
00000300: 0f92 e03d 4606 3e3e 5c16 3e3e 1776 80bd
00000310: 7a06 5dbe c1cd b1bd e229 35bd 5cc1 b03c
00000320: 9903 883e f1f7 553d 8952 aabe b4ee 29bc
00000330: 1ce1 8cbe 8205 6f3d fee8 763d e437 803e
00000340: a866 3ebd 7672 a6be 50e3 8fbd 2b8c 2b3e
00000350: 6c52 173e 5041 7d3e 8513 583e bc58 4fbe
00000360: a35e c3bc e519 8abe 7061 0abe 5b02 f43d
00000370: 36af 813c 532a 6ebd afa9 0ebd 7474 81be
00000380: 7edf 7f3e 3b5d 943d 7f07 493e 2363 34bd
00000390: 977c 4bbd e3eb 063c 11e6 14be d7b0 e03d
000003a0: 5f36 0abe 9ef8 233d b867 b4be df8c a93e
000003b0: 26c7 6a3e 3014 183e cdc4 c23d 702e ee3d
000003c0: 2bc4 65be 2fc6 44be 611d 41bd ca60 1fbc
000003d0: 210a a5bd c1e7 edbc 14be 6c3e 174f 413b
000003e0: 7f17 3bbd 10cf f5bc d027 823e 62ed a1bd
000003f0: 0df9 43be b676 9dbd d332 07be a6ac bf3e
0.016150972 -0.1879206 0.036133237 -0.07088889 0.12708685 0.116255134 -0.10508117 0.33361536
-0.052050088 -0.06832041 0.029608637 -0.064717986 0.15735477 -0.14400618 -0.18635122 0.028818801
0.07555859 0.021278042 0.10853928 0.1238869 0.19292592 0.057762574 0.09456145 -0.0013755916
-0.25328648 -0.16888987 -0.045884866 -0.08410229 -0.18336606 -0.23472446 0.091639005 -0.023848712
0.24960282 0.4902617 -0.17465621 -0.03850403 -0.2978604 -0.05508187 -0.19051078 -0.0035227595
-0.18811394 0.2963042 -0.068213105 -0.1357739 0.20357022 -0.016890787 -0.097673856 -0.2337178
-0.19637482 0.04178311 -0.010858111 0.16427842 -0.15101896 -0.1999662 0.048549052 -0.20570777
-0.016752293 0.30593342 -0.13526458 0.25126597 0.06887024 -0.22550115 -0.05037106 -0.1461929
0.27589718 0.3035551 -0.29029328 -0.55991125 -0.03788232 0.19274276 -0.06555432 0.15350085
0.06792874 -0.17771415 -0.19977042 0.14878 0.25977895 0.09806429 0.22465965 -0.20255324
-0.1613607 -0.050958708 -0.2267609 -0.03532305 0.21204899 0.12711516 0.12949868 0.19585839
-0.18218853 -0.21152322 0.03315811 0.27965075 0.064873196 -0.15416604 0.2707149 0.041824892
-0.03734242 0.07189632 -0.037514843 0.17885034 -0.05524114 -0.18919104 -0.11423487 -0.21775596
0.07398474 0.26666716 -0.19483441 -0.04118924 0.077209726 -0.14537743 -0.05188285 0.0067796577
0.29678988 -0.19086656 0.07005795 -0.042969245 0.26569942 0.12855351 -0.036734506 -0.18687595
-0.04172065 0.070649795 -0.061576456 0.09429369 -0.23579481 -0.0072135366 0.20687321 0.26492438
0.19676758 0.03670412 -0.19608493 0.18947378 0.036978543 0.09804941 -0.29726928 0.3468718
0.05895395 -0.13961977 -0.31626484 -0.13501352 0.2751822 -0.24523318 -0.081947245 -0.36312607
0.51277214 -0.1419535 0.19803916 0.07050026 0.24603423 0.09869473 0.09299477 0.11849815
0.026203703 0.20752601 -0.030198328 0.07289682 0.13240781 0.114502475 0.05072517 0.030106938
-0.25593403 -0.11610449 0.21353863 0.17896123 0.32201576 -0.43375775 -0.09678244 0.028986255
-0.053041812 0.03400656 -0.28794438 0.12954548 0.13557614 -0.10369239 0.08464078 -0.01903879
0.063037604 0.012231882 -0.09338786 0.013869615 0.19625266 -0.23677759 -0.03829563 0.0027966753
0.11223666 -0.32757574 -0.26502225 -0.05688153 0.11947541 -0.3816752 -0.094589375 -0.18548107
0.109653585 0.1855708 0.18563217 -0.06272524 -0.21584502 -0.086818226 -0.044229396 0.021576576
0.26565245 0.05223841 -0.33266094 -0.010371853 -0.27515495 0.058354862 0.060280792 0.2504264
-0.04648462 -0.32509202 -0.07025778 0.16752689 0.14777535 0.24731946 0.21101196 -0.20248693
-0.023848837 -0.2697288 -0.13513732 0.11914512 0.015830617 -0.058145832 -0.03482979 -0.2528416
0.24987599 0.07244345 0.19631766 -0.044039857 -0.049679365 0.008234951 -0.14540888 0.109712295
-0.13497303 0.04003202 -0.3523538 0.3311529 0.22927532 0.14851451 0.09510193 0.11629951
-0.22438113 -0.19216226 -0.04714716 -0.009727666 -0.080585726 -0.029041173 0.23119384 0.0029496604
-0.045676704 -0.030005962 0.25421 -0.07906605 -0.19137974 -0.07688658 -0.13202982 0.37436408

network_body._body_endoder.seq_layers.0.bias f4 [256]
00000000: 1ca7 ccbd 579e 69bb 627a eabc 80b4 9b3c
00000010: 6451 29bc 49b7 88bc 2ee3 fbbc c639 cdbb
00000020: 5d38 c33d 9312 2dbd 8878 343b 244a ec3b
00000030: 6532 53bd f124 7ebd c391 8abc 07c0 693d
00000040: 5477 85bc be40 71bc 63e5 06bd 8296 55bd
00000050: df31 733c 4114 64bd c8ab 8cbd 84ed 69bd
00000060: 0bce c1ba 9ac8 33bc 3f0e a6bd 13a2 cf3b
00000070: 5f8e 043d f063 e4bc 47d4 1cbd 253d 93bc
00000080: c335 a5bb 2233 4cbc ab70 6dbd 98e2 acbc
00000090: 0332 4abc 2b40 43bd 672a 2cbc cabf d6bc
000000a0: 2120 86bc 4792 e03c e956 913c f6aa f1b9
000000b0: c00c cfbc 67bd a8bc 05ed eabc 1867 3bbd
000000c0: c36c 73bd 5ea8 8f3b e68a 9b3b cab8 c33c
000000d0: e0cc b2bb f9f9 dc3b 8dc2 0cbc 258a 243d
000000e0: a5a5 2e3c f02d 433c 9a7c 9dbc aab6 83bd
000000f0: 32bc 07bd e2d5 11bd f8ac 41bd a111 babc
00000100: 555e 7c3a d640 fabc 5878 c0bc 5365 54bd
00000110: da86 c5bc 79c4 1a3d 381b 58bd dd36 66bc
00000120: 4f28 663c bd2f 82bc b121 a7bd c685 4f3b
00000130: 9dad 2fbd 0901 36bc a284 08bd 80ba 2c3d
00000140: 074f cf3b f68e 46bd d5a9 413d a37a e93b
00000150: 3318 d2bd 1381 00bb 7a0a 33bd 1fff 64bc
00000160: c737 57bc 1fb6 88bc 886a d6bd 52fb 3d3c
00000170: b5fe 013b 9e30 263c 618e 2e3c a991 da3b
00000180: 5d9e 603d d8d3 343d 7264 5ebc 228e 88bc
00000190: bc36 633c 5b1e fa3b 9964 94bd 2dc6 253d
000001a0: ed26 1c3d 309e 973c 6769 d1bc 7924 203b
000001b0: 0f49 913c d97f f93c 84b2 813d 3ffa f6bc
000001c0: 9b22 61bc 614d 35bd 7f1c 0a3d a0ff c5bc
000001d0: 5b2a eabc 4aaf 18bd 7afb 153c ae2b 5dbd
000001e0: 9402 26bd 9428 97bd c293 24bd a984 79bc
000001f0: 3e14 143d 0c36 55bd 4f3e c7bd 33d6 e4bc
00000200: 169a 953c e99b 2c3c 966c b3bc 0b55 a8bc
00000210: b18d 95bb db14 9bbc 7a50 1d3c fd44 b13b
00000220: a20e d0bc 39a9 3bbd 51e6 7c3b b295 3dbd
00000230: b296 50bc 1f54 ad3d d6c5 96bd f0a9 c8bc
00000240: 39e1 cabc dace a7bd 87f8 98bc cbd6 5bbc
00000250: c78b 4bbd 2494 6abd 954d ba3c d309 70b9
00000260: 14f9 f23c 2357 0b3d 187e fcbc 74dd babc
00000270: 0405 e5bc 712f bbbd dbf3 123d 78b4 16bd
00000280: 8a27 6abd ca13 0d3c 06d1 263d 8c57 7bbd
00000290: d9d4 13bc 4f24 be3c 8f2a 2abd 2716 43bd
000002a0: 8b36 9abd ddc4 023c 9a88 903b 2940 173c
000002b0: 210d 2f3d ee42 a9bc e29f 6cbc af00 c2ba
000002c0: 4f48 c7bc 5238 fcbc 96e9 3ebd da54 54bd
000002d0: 0255 e33b 82a9 363c 1a8f 90bc f12c 4cbc
000002e0: 65f0 3ebc 6774 36bc ce55 d1bc 3797 e2bc
000002f0: a5b7 c23a 346e 223c 4a0c 203c 1f0e cbbc
00000300: 3415 b0bc 05d5 2e3d f870 263d cfdf e6bc
00000310: d01a d8bd 9216 35bc 9fcf 94bd 50a8 60bd
00000320: c42d ecbc a753 5abd 4a18 39bd be6f b8bc
00000330: 1f34 373c 1045 e9bc de65 313c 81f3 74bc
00000340: 575e 543c 7bbf a2bc 8279 513d 725e cf3c
00000350: 1bdd 223d 8dd4 5cbd 382f bbbc 0c67 28bd
00000360: 203b 583c 2b62 b13c 561b 13bd 7930 47bd
00000370: f73f cc39 b247 7bbd 9292 74bd 4a08 493c
00000380: b72c 4ebd 6215 97bb cb86 5dbc 91ca c2bc
00000390: cd3b b9bc 7f0c b93b 63e3 23bd 3b1c b63a
000003a0: d171 48bd 67fd 61bd 19cb ee3c baa7 54bd
000003b0: f78a d6bc 94d7 bd3c 311c 8e3b 64c0 493c
000003c0: e3e0 af3d 3dd6 ccbc 79b3 093b 5ed1 bebb
000003d0: 0624 81bd e2ee 3ebd 23da 863c 8165 45bd
000003e0: f2b6 ea3b acc1 f0bc 9063 21bc cab5 00bc
000003f0: 1bc6 f4bc be01 133d 2c01 0ebd 88e6 34bc
-0.09992811 -0.0035647356 -0.02862281 0.019006968 -0.010334346 -0.01668896 -0.030747976 -0.0062629906
0.09532235 -0.042254042 0.0027537663 0.0072109867 -0.05156173 -0.06204695 -0.016915208 0.057067897
-0.016292252 -0.014724908 -0.032933604 -0.05214549 0.014843433 -0.055683378 -0.06868702 -0.05711128
-0.0014786137 -0.01097312 -0.08108186 0.0063364594 0.03236234 -0.027879685 -0.03828838 -0.017973492
-0.0050418093 -0.012463363 -0.057968777 -0.021104142 -0.012341025 -0.047668617 -0.010508156 -0.026214499
-0.016372742 0.0274135 0.017741637 -0.00046094478 -0.025274634 -0.020598127 -0.028677473 -0.045752615
-0.059429895 0.0043840846 0.0047467826 0.023891825 -0.005456552 0.0067436663 -0.008591306 0.040170807
0.01065961 0.011912808 -0.019224454 -0.06431325 -0.03313846 -0.035604365 -0.047284096 -0.022713484
0.00096270937 -0.030548494 -0.023494884 -0.051854443 -0.024112154 0.037785027 -0.052760333 -0.014051166
0.014047696 -0.015891904 -0.08160723 0.0031665429 -0.04289018 -0.011108645 -0.033329614 0.042170048
0.0063265595 -0.048476182 0.047281105 0.007125215 -0.10258522 -0.0019608184 -0.043711163 -0.013976841
-0.013135857 -0.016688405 -0.10469538 0.011595564 0.0019835655 0.010143427 0.010654063 0.006670196
0.054838527 0.044147342 -0.013573753 -0.016669337 0.01386803 0.007633013 -0.0724575 0.0404722
0.03812306 0.018508047 -0.025562955 0.0024435802 0.017735032 0.03045647 0.06332877 -0.030148624
-0.013741161 -0.044263247 0.033718582 -0.024169743 -0.02858465 -0.037276544 0.009154195 -0.053996734
-0.040529802 -0.073807865 -0.040179975 -0.015229383 0.036152117 -0.052053496 -0.09728681 -0.02793417
0.01826195 0.010535219 -0.021902364 -0.020548364 -0.00456401 -0.018930843 0.009601707 0.0054098354
-0.025397602 -0.04581568 0.0038589428 -0.04628534 -0.012731241 0.084633105 -0.07361953 -0.024495095
-0.024765598 -0.08193751 -0.018673195 -0.01341791 -0.04969385 -0.057270184 0.022742072 -0.00022891843
0.029659785 0.034018647 -0.030821845 -0.022810675 -0.027956493 -0.09139908 0.03587709 -0.036793202
-0.057166614 0.008610675 0.040726684 -0.061362788 -0.009022915 0.023210673 -0.041544493 -0.047628548
-0.075299345 0.007981506 0.0044108154 0.009231606 0.04273713 -0.020661797 -0.014442416 -0.0014801229
-0.024326472 -0.030788574 -0.046609484 -0.051838733 0.006937624 0.011148812 -0.017646361 -0.012461887
-0.011653994 -0.011136151 -0.02555361 -0.027659995 0.0014855756 0.00991397 0.009768555 -0.024787007
-0.021494485 0.04268362 0.04063508 -0.028182892 -0.10551989 -0.011052744 -0.07266163 -0.054848015
-0.028830417 -0.053302433 -0.04518918 -0.02251422 0.01118186 -0.028475314 0.01082751 -0.014950634
0.0129619455 -0.019866696 0.05114127 0.02531359 0.039761644 -0.05391364 -0.022849664 -0.0411139
0.01319769 0.021653255 -0.03591474 -0.04863021 0.0003895757 -0.06134767 -0.059710093 0.012270043
-0.050335612 -0.0046107033 -0.013520907 -0.023778232 -0.022611523 0.0056472416 -0.040011775 0.0013893911
-0.04893667 -0.055173304 0.029149579 -0.05191777 -0.02618931 0.023174085 0.004336857 0.012313936
0.085878156 -0.0250045 0.0021011515 -0.0058232984 -0.06305699 -0.046614535 0.016461438 -0.048192505
0.007162922 -0.029389225 -0.009850398 -0.007855842 -0.02987962 0.035890333 -0.034669086 -0.011041291

network_body._body_endoder.seq_layers.2.weight f4 [256, 256]
00000000: 41e6 bdba cf6f ed3d 92ac 2ebe d9ac c73c
00000010: 4245 adbd 4edc df3d caca 013d f59e 2abe
00000020: 0f53 4dbc 2fd5 17be cbe6 babc adcd b23d
00000030: 1d72 b43c 9a4a 4b3c 775c 3d3c fb7b c7bd
00000040: c5d4 373d cb32 5e3d 78ee 483d c7ac 41bd
00000050: 29a2 ccbc 927f a33d a146 c0bb de02 d5bc
00000060: 9f59 053e a06a 0d3e 19fe eabc 09c1 98bc
00000070: 9f31 85bd 1774 3abd fdfd e63c 103e c3bd
00000080: b2d1 1bbb 32ce db3d 0d1e 4f3d 50a1 c7bd
00000090: 1a18 c4bc ddf4 0e3d 0dd2 8ebc b470 60bd
000000a0: 7d1a ebbd 82c7 58be 470e 36bd f4b4 2b3c
000000b0: 0990 efbc 6f77 bbbc 6f9c 7cbd ecbb 663d
000000c0: 61ee f83c 85d0 f93a 660b 2ebd dc60 f4bd
000000d0: a138 b8ba 2205 0b3d 63cb a03d ef6c 0fbe
000000e0: 00ac 433d e86f 193d d0fb 503d db5a 013e
000000f0: a335 a53c 7929 22bc 64a4 463d 491e 00be
00000100: 0d70 aabd e181 323c 7ecd fbbc dcba 50bc
00000110: a765 82bd a845 22bd 3db2 2d3d f703 503d
00000120: c7a1 0abe 4da6 0c3e 3de5 c2bc e417 29bc
00000130: 19ef d53d 2bba 8abd b980 2f3d 5ab0 c23d
00000140: f52f ccbc 7d21 4bbd 5e65 ff3c 340a 01ba
00000150: 7259 ce3d d3bc a9be 8aa5 75bd c089 cdbd
00000160: 7cb1 c53c 1c27 a53d 31be 00bd 775c d0bd
00000170: 8eb0 fdbc b695 763c 4dd0 81bd 9183 eb3a
00000180: ab0a 9fbd f17f 15bc 191f 3d3d afef eabd
00000190: 1454 083e 82bd ee3c d58b a4bd 49fd 3ebd
000001a0: 1b48 b83d e731 263d 7e75 023c 8569 8d3b
000001b0: 9890 863d 1468 7a3c 3d86 8e3d 7926 dbbc
000001c0: e5e6 b73b 7b14 51bd 824b 56bc bab5 563c
000001d0: 817f 17bc 00e6 ab3c 02d8 84bd 9fd2 2fbd
000001e0: 7ce6 efbd 982f f43d 0231 8dbd f74e 953d
000001f0: 4ab3 0e3d d03f d2bd e18a 033e 6da9 963c
00000200: a756 303d cded bf3d 344a 4fbd a81e 7bbd
00000210: 1483 60bc 311d 9ebd 0f9a 123e bd5f 99bd
00000220: 5c28 0e3c ff5d 4bbd 41b4 1dbd a643 be3c
00000230: bca4 723d 0af2 92bc bb67 8bbd 21fb 993d
00000240: 2dbc 253d 87d3 083e 1e19 68bd 46b5 a6bd
00000250: 90de 60bd 2509 adbd c133 18bc e784 aa3d
00000260: 2d38 b6bc b4b8 1dbd b50f 30bd 8ec5 1c3d
00000270: e60f 6ebe 886e b7bd 409f 00bd 01fc bfbc
00000280: a431 83bd 4a4b 1bbd 9e85 b7bd f4e2 cabc
00000290: 737b d13d eebd 043d 7c81 843d c972 6bbd
000002a0: 4f89 883c 5c02 2dbe 8a42 be3d cfd9 5a3e
000002b0: 581f 09be 4efc 8abb 3165 513d 7cda 34bd
000002c0: db79 96bd 9b1c 23bd 0a68 08be 2caa f23d
000002d0: b124 dbbc 1e85 0d3d 494b 483d 6830 983c
000002e0: 3fe8 73bd f9ae d73c e60f 503d 9477 903c
000002f0: 4f58 af3c 9026 9cbd 7b2d 0ebd 8d1a c7bd
00000300: 5540 a2be 872a 923d 60b9 c63d 4df8 02be
00000310: d287 083d c142 763d 3fd9 9bbc 7727 aabd
00000320: 1cec 06be 54b8 d73b 39d8 b1bd 3321 6ebd
00000330: fbc1 f0bd 1e61 eabd 4233 6cbd ab0d c03d
00000340: b11c b2bd 0464 103e 0080 59bd 073e e8bc
00000350: ec76 203e e5f2 cbbd 2ced 9c3c 7981 d0bd
00000360: b82b 6bbd 1b37 873b 2116 53bd ba8d 8abd
00000370: 001e 1f3d 9656 ba3d 5752 12be a8de 833d
00000380: de1a 1b3d c5af 80bd e454 7a3c 9439 91bd
00000390: 0666 3239 898b 183e b255 6f3d 91d3 e9bd
000003a0: 9993 323c 4db3 59bd d24c 563d 6807 e03d
000003b0: 76f5 1dbd 1813 aabc 640d 073e 8ee3 8f3d
000003c0: 829c f43c dbd0 463c de1a b93c 582e 373c
000003d0: 91ae a5bd ec10 73bc 5604 e73b 053e 803c
000003e0: b6d3 68bc a62f dbbd aedb 9a3d e970 f0bc
000003f0: c5da b13d 1f42 dd3c bf7b f83c cea5 443d
-0.0014488177 0.115935914 -0.17058018 0.024374412 -0.084604755 0.10930692 0.031687535 -0.166622
-0.01253201 -0.14827417 -0.022815129 0.08730636 0.02202707 0.012407923 0.01155769 -0.09740444
0.044880647 0.05424766 0.049055547 -0.047283914 -0.024979668 0.079833165 -0.0058677946 -0.026002344
0.13022469 0.13810205 -0.028685616 -0.018646734 -0.06503605 -0.04552087 0.028197283 -0.09533322
-0.0023776111 0.10732688 0.050565768 -0.09747565 -0.023937274 0.03490149 -0.017434144 -0.054794982
-0.114796616 -0.21169856 -0.04444721 0.010480154 -0.029243486 -0.022884099 -0.061672624 0.05633156
0.030387105 0.0019059336 -0.04249134 -0.11932537 -0.0014054963 0.033940442 0.07851293 -0.14006399
0.047771454 0.037460238 0.051021397 0.12632315 0.020167178 -0.009897583 0.04849662 -0.12511553
-0.08322153 0.010895223 -0.030737635 -0.012739863 -0.06367045 -0.03961721 0.04240631 0.05078503
-0.13538276 0.13735314 -0.02379095 -0.010320637 0.10445995 -0.0677379 0.04284737 0.09506293
-0.024925211 -0.049592484 0.031176265 -0.000492248 0.10075654 -0.33151874 -0.059972323 -0.10036039
0.024132483 0.080641 -0.03143138 -0.10173886 -0.030967977 0.015050342 -0.06338558 0.0017968287
-0.07765707 -0.009124742 0.046172235 -0.11471497 0.13313323 0.029143099 -0.08034483 -0.04662827
0.08998128 0.040574934 0.007962583 0.0043155574 0.06570548 0.015283603 0.06959198 -0.026751744
0.0056122416 -0.051044922 -0.013079526 0.01310485 -0.009246708 0.020983696 -0.06486513 -0.042925473
-0.11713883 0.1192314 -0.06894113 0.07290452 0.034838952 -0.102660775 0.12845947 0.018391335
0.043051388 0.09371529 -0.050607875 -0.061308533 -0.013703126 -0.077204116 0.14316581 -0.07488964
0.008676615 -0.04965019 -0.03850198 0.023225617 0.059239134 -0.017937679 -0.068068944 0.07518602
0.04046266 0.13361941 -0.05666458 -0.08140044 -0.054899752 -0.0844901 -0.009289683 0.0832613
-0.022243584 -0.038506225 -0.04298373 0.03827434 -0.23248252 -0.08956629 -0.031401873 -0.023435595
-0.064059526 -0.037913598 -0.08961032 -0.024766423 0.10228624 0.032407694 0.0647001 -0.057482515
0.016667036 -0.16895431 0.09290035 0.2137215 -0.13390863 -0.004241503 0.051121894 -0.044153675
-0.07347461 -0.039822202 -0.13320938 0.11848864 -0.026750894 0.03455078 0.048899923 0.01857777
-0.05954766 0.02632855 0.050796412 0.017635144 0.021404414 -0.07624543 -0.034711342 -0.09721861
-0.31689706 0.07137018 0.09703326 -0.12790032 0.033332653 0.060122255 -0.01902449 -0.083083086
-0.13176006 0.006583253 -0.08683819 -0.05813713 -0.11755749 -0.11444305 -0.05766607 0.09377607
-0.08696879 0.14100653 -0.053100586 -0.02834989 0.15670365 -0.09958438 0.019156061 -0.10180945
-0.05741474 0.004126442 -0.051534776 -0.067653134 0.03884697 0.09098546 -0.14289223 0.06438953
0.03786742 -0.062835254 0.015279029 -0.0709106 0.0001701341 0.14896978 0.058431335 -0.11417306
0.010899448 -0.05314951 0.052319355 0.10938913 -0.038564168 -0.020761058 0.13188702 0.070258245
0.029859785 0.012134756 0.02259582 0.011180483 -0.080899365 -0.014835577 0.0070500774 0.015654573
-0.014210632 -0.107024476 0.07561432 -0.029350715 0.08684305 0.027009068 0.030332444 0.048009686

network_body._body_endoder.seq_layers.2.bias f4 [256]
00000000: 5528 00bd 9bbd 2dbc 205b 87bc 46d1 03bd
00000010: 4bde f53b ee53 1abc 34c6 06bd 67be ba3a
00000020: bdf3 8c3c f25c d2bc 4633 0ebb de3d 3f3d
00000030: dc6b f4bb a2b6 61bc 4ee6 a13c b359 e53c
00000040: b27b 443d e823 64bd e354 07bc 69c3 cf3b
00000050: d1cd 09bd 986a 4dbd 94e5 54bd 9aaf a1bb
00000060: f4d4 25bd 53d4 88bb 9de9 93bd 8270 d6bb
00000070: 7991 a43b 1e7c 9ebc 9896 5cbd 0535 1a3c
00000080: 4210 84bc a960 47bd 6a26 0e3c 5bcc 5bbd
00000090: 0486 bebc b752 e83c 24b6 63bc 5dd6 cdbc
000000a0: bb16 ecbb dc4d e53b bcfd a3bc 6c26 61bb
000000b0: 1bf1 31bb 7b9c a9bc 26d7 34bd 03c3 efbc
000000c0: 2c66 8d3c 3ce2 6fbc 1afd e5ba 46e0 b0bb
000000d0: 7f10 dcbc 01ad 28bd 5036 2dbc bfb8 6abc
000000e0: cf67 37bd f3da 14bd cb36 453d 8e56 803c
000000f0: f286 78bc 7c15 d3ba d51d 3bbc bf4d 29bd
00000100: d158 60bc 0c23 16bc 96a7 313d b690 76bc
00000110: fa50 9abc 1550 20bd 86da acbc 2b49 8bbc
00000120: 8d2c d23b 87e4 f9bb 720a 5d3d 6ca6 0bbb
00000130: 350e e5bc 43dd 83bc c203 483b abf4 883c
00000140: 1851 74bd 7276 a63c 44d5 883c 9e5c 81bc
00000150: e7bf 00bd 410c bc3c 13aa d7bc 3482 eb3b
00000160: 7c41 cb3c 6853 c0bc d20b 1a3b 7532 98bc
00000170: b329 a5bc 55ae 17bd 591e 53bb 5ff5 1cbb
00000180: 992e 683d 7ee8 04bc a543 8bbc a3e5 373d
00000190: c69d 873b 73ef 94bc 02b6 ebbc 827c dabc
000001a0: 5a65 3f3b 9b54 0a3d 1826 3b3c ed40 39bc
000001b0: 15e9 dd3c 73bc 1bbc 6b4c be3c 57e7 813c
000001c0: 3634 b13c 0bb6 b03b 9161 cfbc 327e 08bd
000001d0: db71 993c 98fc 033b b243 c4bc 12a2 64bd
000001e0: c168 93bc 20c8 9cbd b8dd f43c 55db 06bd
000001f0: d034 77bd f675 afbb 0d30 23ba 9d19 29bd
00000200: 2e00 64bc c120 f23a 91f6 2abd fb33 2abb
00000210: 38f2 193b ff16 2bbc cb0b 95ba 3ad9 53bc
00000220: 021b 803b b4b5 83b9 46d7 0d3c 8dcc 12bb
00000230: bb4d 66bc 703d 13bd 62c0 e7bc 5ec4 b4bc
00000240: 6388 27bc af85 79bc 1c6c 523d 7be0 16bc
00000250: db5c b9bc 5e5d a5bc 1c8d e23c a39d 14bb
00000260: 7f58 56bc 16b2 79bd 5f27 2d3c 4d81 773d
00000270: e73f 5fbd 0d6a 26bc d904 12bd 1aa2 c53c
00000280: 393b 363d e266 083c fff4 96bb 351f 673c
00000290: bfc4 a7bc 0d9d 823d 946e 3dbd 6313 993c
000002a0: 2cd3 50bd d752 19bd 3d48 00bd ed63 dbbc
000002b0: 679b 19bd c60f 1cbd e1f7 54bc e445 39bd
000002c0: 6af7 3d3b f00e 4abd 19cc 04bd 0a13 33bd
000002d0: 50f8 c13c 2a6f 923b de34 d63c c3d1 303a
000002e0: ee38 b2bc 2c20 31bd 99bb f23c 1227 a0bb
000002f0: 05a2 debb 1de6 c9bc 143d e9bc e6af d63c
00000300: 6e28 5f3d 6ef1 4e3d ff44 80ba 3360 823a
00000310: 0ba8 843c 780c 50bd ae6a b63c b0fa 553d
00000320: 4d84 1fbc 617c 6dbd 0fe0 2c3d 132e 3dbd
00000330: 5806 093d 99af 0c3b d5c6 14bd a8fe eb3c
00000340: c41e 0bbc 82e4 8cbc 0012 bcba 2a98 283b
00000350: 914d 63bc 253d 82bd 9efc a73b fc88 203d
00000360: 6c34 8fbc 24e6 89ba ec3f 7ebd fcda 0e3c
00000370: ed1e fd3b 062a 98bb 3e06 9cbc 0dd2 bdbb
00000380: b166 d1bc a58d f5bc 8c2e e3ba f520 61bc
00000390: 976f 0ebd 49c9 b83c d28e 29bd b172 6cbc
000003a0: 355c efba 090f 36bd 3309 1dbd ab9a 9abc
000003b0: 5134 3bbd cad7 b0bc 0282 bbbc 7447 073c
000003c0: a308 943c 8ae7 b93c 679b a5bc 75c1 7f3d
000003d0: 1be1 d6bc cc4d b43c 3958 38bd 313e 683a
000003e0: 332c 6abc 09f4 283c 8ea0 41bb fdd1 043c
000003f0: e2f3 fdbc c453 d8bc 6643 15bc ed7f 83bc
-0.031288464 -0.0106042875 -0.016522944 -0.032182 0.007503306 -0.009419424 -0.032903865 0.0014247418
0.017206067 -0.025679085 -0.0021698042 0.04668986 -0.007459147 -0.013776453 0.019763138 0.027996873
0.047969528 -0.055698305 -0.008259985 0.0063404334 -0.033643547 -0.050150484 -0.051976755 -0.0049342634
-0.04048629 -0.0041757016 -0.072222926 -0.0065441737 0.0050222245 -0.019346293 -0.053854555 0.009412055
-0.016121034 -0.048676167 0.008676151 -0.053661685 -0.023257263 0.028359754 -0.013898406 -0.02512663
-0.007204858 0.006997807 -0.02001845 -0.0034355177 -0.0027151767 -0.020704499 -0.044150494 -0.029267794
0.017260633 -0.014641341 -0.0017546744 -0.005397829 -0.026863335 -0.041180614 -0.010572031 -0.014326273
-0.044776734 -0.03634162 0.048147958 0.015666272 -0.015168892 -0.0016104425 -0.011420687 -0.04133391
-0.0136930505 -0.009163629 0.043372713 -0.01504915 -0.01883744 -0.039138872 -0.021100294 -0.017002663
0.0064140023 -0.0076261195 0.05396504 -0.0021308912 -0.027960876 -0.016096717 0.0030519818 0.01671823
-0.05964765 0.020320151 0.016703255 -0.015791234 -0.031433012 0.022955062 -0.026326215 0.0071871523
0.024811499 -0.023477271 0.002350558 -0.018578747 -0.020161485 -0.03703149 -0.0032214134 -0.0023949964
0.056685064 -0.008112071 -0.017000029 0.044896733 0.004138681 -0.018180585 -0.028773312 -0.026670698
0.0029204697 0.033772092 0.0114226565 -0.011306983 0.027088681 -0.009505379 0.023229798 0.015857382
0.021631341 0.005392795 -0.025315078 -0.033323474 0.018731048 0.0020139571 -0.02395806 -0.055818625
-0.017994286 -0.07655358 0.02989088 -0.032924015 -0.0603531 -0.005354638 -0.00062251167 -0.041284192
-0.0139160585 0.0018472896 -0.04173905 -0.0025970924 0.002349032 -0.010442494 -0.0011371312 -0.012930209
0.0039094696 -0.00025121646 0.008657282 -0.0022399754 -0.014056618 -0.035947263 -0.028289977 -0.022066291
-0.010225388 -0.015229627 0.051372632 -0.009208794 -0.022627285 -0.020186123 0.027655177 -0.0022676967
-0.013082623 -0.06096085 0.010568469 0.060426045 -0.0545043 -0.01015712 -0.035649154 0.024125148
0.044490073 0.00832531 -0.0046068425 0.014106561 -0.020479558 0.06377611 -0.046248034 0.018686002
-0.05098264 -0.037432518 -0.03131889 -0.026781047 -0.03750172 -0.03810098 -0.012998552 -0.04523267
0.0028986582 -0.04933065 -0.032421205 -0.04371933 0.023677975 0.004468818 0.026148256 0.0006745124
-0.021755662 -0.043243572 0.02963047 -0.00488747 -0.0067942166 -0.02464586 -0.028471507 0.026206922
0.054481916 0.050523214 -0.0009786187 0.0009946882 0.01619341 -0.05079314 0.022267666 0.052241027
-0.009736133 -0.057979945 0.042205866 -0.046186518 0.033453315 0.002146697 -0.036322434 0.028807953
-0.008491222 -0.017198805 -0.0014348626 0.0025725462 -0.013873474 -0.06359319 0.00512655 0.03919314
-0.017481051 -0.0010520858 -0.06207268 0.008719202 0.007724634 -0.0046436815 -0.019045945 -0.0057928623
-0.025561662 -0.029974768 -0.0017332598 -0.013740768 -0.03477439 0.022556918 -0.04139597 -0.014431641
-0.0018261733 -0.044447932 -0.03833885 -0.01887258 -0.04570419 -0.021587271 -0.022889141 0.008256782
0.018070525 0.022693414 -0.020215703 0.062440354 -0.026230386 0.022009753 -0.04500601 0.0008859365
-0.0142927645 0.010312089 -0.002954516 0.008106706 -0.031000081 -0.02640713 -0.009110307 -0.01605221

action_model._continuous_distribution.log_sigma f4 [1, 2]
00000000: 1ee4 84bd 550d 733d
-0.064888224 0.059338886

action_model._continuous_distribution.mu.weight f4 [2, 256]
00000000: bda0 27bd 775d 93bd 0d17 56bd 6786 cabd
00000010: e0d3 a4bd 21de 84bc 28e2 1d3c b627 93bd
00000020: a13e 22bd 45cb e23b a271 ab3d b1ad ab3c
00000030: 1980 ad3c d197 e4bb f389 d33c 5ec7 c7bd
00000040: 1928 793d 58e5 dfbc a46f 99bd b5f7 bcbd
00000050: af21 7dbc dc63 0cbe 1627 c7bb d0af 05bc
00000060: 5d4e 8d3b 16fd d7bb 547a ea3b b7b7 8b3c
00000070: a65e 113d 83ec 54bd 3972 ddbc 9769 8ebd
00000080: 3da0 683d 5b04 87ba 3157 003d c3b5 5fbd
00000090: 4510 e73b bb07 85bd 7ae1 bdbd d560 06bc
000000a0: b940 943a f5ca 0b3d fc1f cd3a 36cf 8d3c
000000b0: 5118 523d acfa 113b 305d 42bb 8ed6 adbd
000000c0: 444d 0fbd 0b13 a93b 167b 7b3d a49c b23a
000000d0: 2fb4 a8bc 5ee3 0abd 0410 47bd eba2 cc3b
000000e0: 8dd1 d3ba 37bc 90bb 378f 48bd 1180 263d
000000f0: acfd d8bd bcf1 e7bb 91e8 a1ba fa91 22bd
00000100: 3261 aebd 479a 953a 7397 fc3c a74c 6abd
00000110: 4a37 f1ba be0b 1f3b bfc5 54bb cc59 6fbb
00000120: 8607 64bd 56a9 6f3c 0817 713d fc92 b0bb
00000130: 2183 3e3c 0f94 02bd 4948 58bc 0817 943d
00000140: 3170 82bc 2737 b6bc f58e a4bc a67c 30bd
00000150: 3730 3abc 7e7f d0bd 4cbe 22bd 04d7 26bc
00000160: aa16 d33c a3e3 a2bd 4848 e23c f4fe 96ba
00000170: da5b 90bc 8e4a dbbb 9a62 cdbc 2c6c 80bc
00000180: 7497 8b3d 629e 9a3d 1a84 29bc e552 fbbd
00000190: 57ce 05bd ce77 d0bd 89dc 933b cb09 d6bd
000001a0: dea5 473d ba5e 3e3d c48e 3d3d 819e 58bd
000001b0: ad93 e0bd a00e a23b 96f6 a63d 8a07 b93d
000001c0: 3875 f53b 8b7a a9bd 0bbc 403d 3a03 263d
000001d0: b78b a33c cd6a e33b 7cbf 003c 85df d1bc
000001e0: 7305 973c a33f 90bc f3c1 3c3d b05d 15bd
000001f0: 3742 69bd 7d40 78bb 770a 003d c05d 093d
00000200: b4b9 88bc 5781 753d f07b 843c 2768 d0bd
00000210: f5d2 3cbd f06f 603a 759b 263d 0285 3e3c
00000220: f9cd a63c b8e4 abbd 0efb a33c 9eff 643b
00000230: 2482 bbbb c0b9 2abb e499 80bd 491a 53bd
00000240: 3c28 963c 9a72 d0bb 0369 903d 67bc 5d3b
00000250: 78f9 ad3a 4ddb 133b c672 f5bc bb76 87bd
00000260: 7af0 9d3b 5f1c 8e3c 35c5 d6ba 8870 ec3c
00000270: eb3b 3a3b 0a52 6f3d 1611 84bc d324 a53c
00000280: 1911 9a3d 5ade e03a a0e0 78bc 692e 003d
00000290: a97c d33c e52b 923c 13cc e1bc 19ea a73d
000002a0: 11d7 24bc 99fe 2e3d 90ae a6bd e07e 85bd
000002b0: 513c a4bd 3119 0ebc f9fd 44bb 86cb 08bd
000002c0: 9f2f ef3b 54a6 a93c 3833 d03c 12f5 85bd
000002d0: 3429 9bbd bf36 cabc 6238 dabd 0e40 4bbc
000002e0: f19a e93c b0ff 9fbd 0c56 dabd f3f3 53bd
000002f0: 6fe3 833d ab8c debc 196b 35bc dd1e bbbd
00000300: a895 423d 4d91 d83c 7e97 febb ba04 103d
00000310: 2828 91bb fa39 69bd 1117 4e3d 8616 663d
00000320: 8af4 c2bb 3bd9 7bbc 4158 f8bd ad94 983b
00000330: 72a6 c03c d29d ae3d 6d70 3bbc 3a11 d83c
00000340: 0988 ab3c d2c5 3abd c683 8cbd f41c d6bc
00000350: 9cb1 a6bd 8e1e 7c3c 48a9 9dbd 9511 193c
00000360: 9aad 50bd ade1 603d a262 24bd 32ec 8cbc
00000370: dd35 a03b e553 283d 3e50 9b3b 4106 a636
00000380: c376 81bd a766 253c 4e6e 5ebb 5e5e 563c
00000390: 3896 38bd c3fb cfbc 16ad 97bd 3617 83bb
000003a0: d9b5 3fbd d9c6 6ebd 43d7 97bd bded 76b9
000003b0: e698 1dbc dc7c 41bd ccbd 50bd dd9b 9d3d
000003c0: 22c5 8ebd 369f c5bd 3cf6 c4bb 3fae b63c
000003d0: cf42 92bc b8b9 823d c4b2 d0bd be45 8fbd
000003e0: 593f b4bd 9197 cdbc 99b8 a0bb f23b 043c
000003f0: 8a4f ca3c de34 3abd 2ff4 263b eaa7 58bd
-0.040924776 -0.071955614 -0.052268077 -0.098889165 -0.080482244 -0.0162192 0.009636439 -0.07185309
-0.03961051 0.0069212043 0.08371283 0.020956846 0.021179246 -0.0069761057 0.025822615 -0.09754823
0.060829256 -0.02733104 -0.07491997 -0.09226934 -0.015449925 -0.13709968 -0.0060776575 -0.008159593
0.00431232 -0.0065914495 0.007155696 0.017055376 0.035490654 -0.051983368 -0.027032005 -0.069537334
0.05679344 -0.0010300981 0.031333152 -0.0546167 0.0070515 -0.06495615 -0.09271522 -0.0082017975
0.0011310793 0.0341291 0.0015649791 0.01731072 0.05129272 0.0022274656 -0.0029657595 -0.08488189
-0.034985796 0.005159741 0.06139668 0.0013627005 -0.02059373 -0.03390824 -0.048599258 0.0062450073
-0.0016160473 -0.004416968 -0.048964705 0.040649477 -0.10595259 -0.0070783775 -0.0012352635 -0.039689995
-0.08514632 0.0011413776 0.030833935 -0.057202008 -0.0018403318 0.0024268473 -0.0032466499 -0.003652203
-0.055671237 0.014627775 0.058859855 -0.0053886157 0.011627943 -0.03187948 -0.013200828 0.07230955
-0.015922638 -0.022243096 -0.020087698 -0.043087624 -0.011364034 -0.10180567 -0.039732262 -0.0101831
0.025767643 -0.079535745 0.027622357 -0.0011520074 -0.017621923 -0.006692237 -0.025071431 -0.01567658
0.06815997 0.075497404 -0.010346437 -0.1227167 -0.032667484 -0.10179101 0.004512374 -0.104510866
0.048742168 0.046477057 0.04627873 -0.052885536 -0.10965667 0.004945591 0.08152501 0.09034641
0.00749078 -0.08275326 0.04705433 0.04053042 0.019964082 0.006940222 0.007858153 -0.025619278
0.018435216 -0.01760847 0.046083402 -0.0364663 -0.056947913 -0.0037880235 0.03125998 0.033536673
-0.016690113 0.0599378 0.01617238 -0.101761155 -0.04609962 0.0008561602 0.0406756 0.011628391
0.020361887 -0.08393234 0.020017173 0.0034942399 -0.005722301 -0.0026050657 -0.06279352 -0.05153874
0.018329732 -0.006361318 0.070512794 0.003383422 0.00132732 0.0022561133 -0.029961955 -0.06614443
0.004819927 0.017347513 -0.0016385677 0.028862253 0.0028417062 0.058427848 -0.016121428 0.02015916
0.07522792 0.001715611 -0.0151902735 0.03129426 0.025816279 0.017843196 -0.02756313 0.081989475
-0.010061041 0.042723272 -0.08138764 -0.0651834 -0.08019317 -0.008672998 -0.0030058606 -0.03339722
0.007299378 0.020709194 0.025415048 -0.06540884 -0.07576218 -0.024684308 -0.106552854 -0.012405409
0.028516265 -0.078124404 -0.106609434 -0.05174632 0.06439864 -0.027166685 -0.011072897 -0.09136746
0.047506005 0.026436472 -0.007769524 0.035160758 -0.004429836 -0.056940056 0.050314967 0.056173824
-0.0059495615 -0.015371616 -0.12126208 0.0046563954 0.023516867 0.085261956 -0.011440379 0.026375402
0.02093889 -0.045598812 -0.06861071 -0.026136853 -0.08139345 0.015388144 -0.076983035 0.009342571
-0.05094681 0.05490272 -0.040133126 -0.01720247 0.0048892335 0.041095633 0.00473979 4.9479136e-06
-0.0632148 0.010095275 -0.0033940258 0.013084022 -0.045065135 -0.025388604 -0.074060604 -0.0040005697
-0.046804283 -0.058295105 -0.07414105 -0.00023548953 -0.009618973 -0.047238216 -0.050962254 0.07695744
-0.06971194 -0.09649508 -0.0060107987 0.022299884 -0.017854122 0.06383079 -0.10190347 -0.06995724
-0.08801145 -0.025096687 -0.0049048183 0.008070933 0.02469613 -0.045460574 0.0025475135 -0.05289451

action_model._continuous_distribution.mu.bias f4 [2]
00000000: fa4d 833d 2a89 2b3d
0.06411357 0.041878857
