Assets/Models/5x5/5x5.onnx (onnx, 297963 bytes, 7 tensors)

network_body._body_endoder.seq_layers.0.weight f4 [256, 29]
0	0xbdeea7de	-0.11653112
1	0x3e8600c1	0.2617245
2	0x3e04a80b	0.12954728
3	0xbcd9193b	-0.026501289
4	0x3e1be4df	0.15224026
5	0x3e57e1b0	0.21082187
6	0x3e0cc708	0.137478
7	0xbc01dcd9	-0.007926189
8	0x3e103050	0.1408093
9	0x3e9365ad	0.2878851
10	0xbdd988e9	-0.10621817
11	0x3cdc1c4a	0.026868958
12	0x3cbde29f	0.02317935
13	0x3debc642	0.11512424
14	0x3eed9b2c	0.4640745
15	0xbd6c1ccd	-0.057644654
16	0x3ea1c5af	0.31596133
17	0xbc95b3d8	-0.018274233
18	0x3d2cfce3	0.04223336
19	0xbe8f5ccc	-0.28000486
20	0xbe7524db	-0.2393984
21	0xbdbaa731	-0.091139205
22	0x3eb6ac36	0.35678262
23	0xbdffa417	-0.124824695
24	0xbea1c638	-0.3159654
25	0x3e50decc	0.2039749
26	0x3f052f3d	0.52025205
27	0xbe3ad832	-0.18246534
28	0x3e84f80f	0.25970504
29	0x3d4b4d63	0.04963435
30	0xbec544fb	-0.3852919
31	0xbc9defcd	-0.019279385
32	0x3dc66ead	0.096890785
33	0x3d2603dd	0.040531028
34	0xbe7c6ffe	-0.24652097
35	0x3e1e665f	0.15468739
36	0x3e237a8e	0.1596472
37	0xbed914cd	-0.42398682
38	0xbe0a6277	-0.13514124
39	0x3e5d3b86	0.21604738
40	0xbdef2900	-0.11677742
41	0x3e1d2fe6	0.15350303
42	0x3c8488a7	0.016178442
43	0xbbfe538f	-0.007761426
44	0xbec1fba8	-0.3788731
45	0xbc787e9e	-0.015166907
46	0x3e301dc4	0.17198855
47	0xbd66f699	-0.056387518
48	0xbd10483d	-0.03522514
49	0xbe4eab79	-0.20182599
50	0x3e241ef5	0.16027434
51	0x3e784848	0.24246323
52	0xbe05bf9f	-0.13061379
53	0xbecd7f87	-0.40136358
54	0xbe44f684	-0.19234663
55	0x3c83e399	0.016099738
56	0x3e5e2dad	0.21697111
57	0xbe3215e1	-0.17391159
58	0xbce1aa5e	-0.027547058
59	0x3d27b0f9	0.04094026
60	0xbdcc4930	-0.09974897
61	0xbe221cda	-0.15831318
62	0xbe94fb8c	-0.29098165
63	0xbddf86c4	-0.109143764
64	0xbd674fb6	-0.056472503
65	0x3e0459ed	0.12924929
66	0x3e1d80ab	0.15381114
67	0x3e360341	0.17774679
68	0x3e45c99e	0.19315192
69	0x3e282a68	0.16422427
70	0xbed7e8b5	-0.4216973
71	0xbd8355ae	-0.064128265
72	0x3d237f78	0.039916486
73	0xbe27dbdb	-0.16392462
74	0xbdd09935	-0.10185472
75	0x3dc8a35d	0.09796784
76	0x3e3d7be3	0.1850429
77	0xbe0d2d82	-0.13786891
78	0xbea04140	-0.31299782
79	0xbe8940e5	-0.26807323
80	0xb98cbb19	-0.0002684228
81	0xbea5638d	-0.32302514
82	0xbd6e960e	-0.058248572
83	0x3c998e9f	0.018744765
84	0x3e7c8994	0.24661857
85	0xbe1b3958	-0.15158594
86	0xba3e1ae8	-0.0007251934
87	0x3e067e35	0.13134082
88	0xbe5f602a	-0.21814027
89	0x3e502ec1	0.20330335
90	0xbd7d7843	-0.06188227
91	0x3e80e220	0.2517252
92	0xbe4ce5d8	-0.20009553
93	0x3de08d14	0.109644085
94	0xbda6f047	-0.08151298
95	0xbeb2f977	-0.34955952
96	0xbc839226	-0.0160609
97	0xbd999e97	-0.07500952
98	0xbcbd18f5	-0.02308319
99	0xbe7693ae	-0.24079773
100	0x3e2beae2	0.1678882
101	0xbd85e35b	-0.06537505
102	0xbde82b2f	-0.113363616
103	0x3cad4f0d	0.021155858
104	0x3e258dd3	0.16167383
105	0xbdbe8af2	-0.093038455
106	0xbe3d3916	-0.18478808
107	0xbe7fe419	-0.24989356
108	0x3dc553a4	0.09635094
109	0x3e644d45	0.22295101
110	0x3e2f5bab	0.17124812
111	0xbcc04827	-0.023471905
112	0x3dee900a	0.11648567
113	0xbcf3e2ba	-0.029771198
114	0x3efc5252	0.49281555
115	0xbd7fd4ca	-0.06245879
116	0x3d93be2d	0.072140075
117	0xbd76152d	-0.06007879
118	0xbe85efc1	-0.2615948
119	0x3ec572ae	0.38564056
120	0xbe5f1686	-0.21785936
121	0xbe92539d	-0.28579417
122	0x3de5077f	0.111830704
123	0x3e2e235c	0.17005676
124	0x3ddd6e69	0.10812075
125	0xbe030fe0	-0.12799025
126	0xbe457e8f	-0.1928656
127	0x3d3333bc	0.04375051
128	0xbd63d16b	-0.05561964
129	0x3d3829b5	0.04496165
130	0xbd926ccb	-0.07149657
131	0xbcc8be00	-0.024504662
132	0x3e06feed	0.13183184
133	0x3e32b055	0.17450078
134	0x3d42ed5a	0.047589637
135	0xbd862247	-0.06549507
136	0xbe0bc264	-0.13648373
137	0xbecd7440	-0.40127754
138	0xbebcf9e3	-0.36909398
139	0x3e19f57d	0.15035053
140	0xbe050e06	-0.12993631
141	0xbd596c0a	-0.05308155
142	0x3df50e6e	0.11965643
143	0xbec17e4b	-0.37791666
144	0x3f1101ab	0.5664317
145	0x3dff1469	0.12455065
146	0xbdba8852	-0.09108032
147	0xbe19db84	-0.15025145
148	0x3ec3a6d3	0.38213214
149	0xbe3f1a43	-0.18662362
150	0x3e6c53c4	0.23078829
151	0x3e5a94c5	0.21345814
152	0x3d691579	0.056905244
153	0xbe7d3cfa	-0.24730292
154	0x3db7fb68	0.08983499
155	0x3e02dc4d	0.1277935
156	0xbeb3435f	-0.35012338
157	0xbecf9f5e	-0.40551275
158	0x3ccf7008	0.025321975
159	0x3cf71720	0.030162394
160	0x3e4fab7d	0.20280261
161	0xbc002c2e	-0.007823033
162	0x3d113a1f	0.03545582
163	0xbca0c763	-0.019626325
164	0xbe94e851	-0.29083493
165	0x3c14b8f3	0.009077298
166	0x3e20ecaa	0.1571528
167	0x3afa7312	0.001910778
168	0xbe4283f5	-0.1899565
169	0xbe0edd86	-0.13951692
170	0x3e3ac37d	0.18238635
171	0xbd2ecf70	-0.042678297
172	0xbd3edd34	-0.046597674
173	0x3e8879ed	0.26655522
174	0xbe9078c5	-0.2821714
175	0x3dbf04ef	0.09327113
176	0xbde73cdf	-0.11290907
177	0xbe03a73f	-0.12856768
178	0xbeb2ab74	-0.34896433
179	0x3eba8278	0.36427665
180	0xbdbb4c5c	-0.09145424
181	0x3ea21772	0.31658512
182	0xbdb0dd1f	-0.086359255
183	0x3e5f67fe	0.21817014
184	0xbdeec3cf	-0.11658441
185	0xbc54e565	-0.012994145
186	0x3e592f81	0.21209528
187	0x3e7c3510	0.24629617
188	0xbe2f08d2	-0.17093208
189	0x3d9ee0f6	0.07757752
190	0xbd53df07	-0.051726367
191	0x3bcd9f8e	0.006275124
192	0xbe72d3ad	-0.2371356
193	0xbe0c57e3	-0.13705401
194	0x3e1421f1	0.14466073
195	0x3dcf2117	0.10113733
196	0xbe6c46bb	-0.23073857
197	0x3e8757d5	0.26434198
198	0x3d462c0e	0.048381858
199	0x3e154763	0.14578013
200	0xbcccd35b	-0.025003126
201	0xbe060e8c	-0.13091487
202	0x3da77e6c	0.0817841
203	0x3f16ad65	0.5885833
204	0xbd8cb497	-0.06870382
205	0x3dc71c3c	0.09722182
206	0xbd0ceebf	-0.034407374
207	0xbe165946	-0.14682493
208	0x3ca4046f	0.020021645
209	0xbd5de6e5	-0.054175276
210	0xbed86649	-0.42265537
211	0xbe997da7	-0.29978678
212	0xbe856c10	-0.26059008
213	0xbdd04f2b	-0.1017135
214	0x3e9affb1	0.30273202
215	0x3e8ca853	0.2747217
216	0xbdb4782c	-0.088119835
217	0xbee5fd44	-0.4491979
218	0x3e318f2b	0.1733977
219	0x3e5c6e7b	0.2152652
220	0xbe7aa7e2	-0.24478105
221	0xbe15a1d2	-0.14612511
222	0xbcc4b76f	-0.02401325
223	0x3e84b24e	0.25917286
224	0xbd6e9112	-0.05824382
225	0x3d879e5f	0.06622004
226	0xbea15cf2	-0.31516224
227	0xbd47df1a	-0.04879675
228	0x3e24512b	0.16046588
229	0x3d057815	0.032585222
230	0xbd57a18d	-0.0526443
231	0xbee0e0cf	-0.43921515
232	0xbe256606	-0.161522
233	0xbd828be6	-0.0637434
234	0xbe14b22c	-0.14521092
235	0xbe452200	-0.19251251
236	0xbd578b64	-0.052623168
237	0xbe2e8ce9	-0.1704594
238	0x3cdfc356	0.027314823
239	0x3db227e4	0.08699015
240	0x3ac0321e	0.0014663374
241	0x3e3c2747	0.18374358
242	0xbf043dcc	-0.51656795
243	0x3e0f3c70	0.13987899
244	0x3e7f400a	0.24926773
245	0x3ced975d	0.02900284
246	0x3edb28e3	0.42804632
247	0xbd4c826a	-0.04992906
248	0xbe02ad7f	-0.12761496
249	0xbe665d33	-0.2249649
250	0xbd2d44e5	-0.04230203
251	0xbe12e89e	-0.14346549
252	0x3e4b0dd5	0.19829495
253	0x3e415d10	0.18883157
254	0xbda58443	-0.080818675
255	0x3ea8bed6	0.32958096

network_body._body_endoder.seq_layers.0.bias f4 [256]
0	0xbca9614e	-0.020676281
1	0x3d06b4d7	0.032887306
2	0xbdda133c	-0.106482
3	0x3cb9b110	0.022667438
4	0x3d02739f	0.031848546
5	0x3c7f6f12	0.015590446
6	0xbc52d5a9	-0.012868323
7	0x3cc96a1a	0.024586726
8	0x3da1396c	0.078722805
9	0xbd2161c7	-0.03939989
10	0xbc432c56	-0.011912426
11	0xbd65b47a	-0.05608032
12	0xbc225ab8	-0.009909324
13	0x3b4a3d57	0.0030859315
14	0x3b2b9488	0.002618106
15	0xbad3cd54	-0.0016159215
16	0xbc99973a	-0.018748868
17	0x3b4ff442	0.0031731282
18	0xbbc1451f	-0.0058981325
19	0xbbbb6133	-0.005718374
20	0xbd8a8bf8	-0.06764978
21	0xbc0aae09	-0.008464345
22	0x3c64582d	0.013937038
23	0xbac9a551	-0.0015384351
24	0x3cb33946	0.021877896
25	0xbab3453b	-0.0013677248
26	0xbcce0d67	-0.025152875
27	0xbcdae1d3	-0.02671901
28	0xbcb2a139	-0.021805393
29	0xbca3f343	-0.020013457
30	0x3a4011c6	0.0007326867
31	0x3cf3f6a7	0.029780699
32	0x3c4439f3	0.011976707
33	0xbc263aa0	-0.010145813
34	0xbc5c0554	-0.013429005
35	0xbc3e76f2	-0.011625038
36	0x3d2a4f07	0.041579273
37	0xbd245c27	-0.040126946
38	0x3c3dd91b	0.0115874065
39	0xbd69a02a	-0.05703751
40	0x3cd79870	0.026317805
41	0x3d3d8ce2	0.046276934
42	0xbcd58b1e	-0.026067313
43	0xbbf6445e	-0.007515474
44	0xbd074e9e	-0.03303396
45	0x3b9c8a34	0.0047772173
46	0xbcdfb742	-0.027309064
47	0xbcf7343e	-0.030176278
48	0x3a492475	0.0007672974
49	0x3c7afbe9	0.015318849
50	0xbcfe13c9	-0.031015294
51	0x3c4e0c7b	0.012576218
52	0x3d7ab314	0.06120594
53	0xbcec22e4	-0.02882523
54	0x3d33f9d2	0.04393942
55	0xbcc7d38c	-0.024392866
56	0x3bda8539	0.0066687134
57	0xbd71ac9e	-0.05900251
58	0xbccd0494	-0.025026597
59	0x3cd6584a	0.026165146
60	0xbd17760b	-0.03697781
61	0xbbbce5fd	-0.0057647214
62	0xbd49eef8	-0.049300164
63	0xbcf4b126	-0.029869627
64	0xbce86794	-0.028369702
65	0xbd007262	-0.031359084
66	0x3c8bcade	0.017064508
67	0xbbe33652	-0.0069339657
68	0xbda21214	-0.079136044
69	0xbd55ba2b	-0.052179497
70	0x3ae0a9b2	0.0017140417
71	0xbd3871a0	-0.045030236
72	0xbd23786c	-0.039909765
73	0x3d3fa753	0.046790432
74	0xbd64a544	-0.055821672
75	0xbcbded00	-0.0231843
76	0xbcfe662d	-0.03105458
77	0xbd82519d	-0.06363223
78	0x3c86e367	0.016465856
79	0xbc5ed78a	-0.013601193
80	0x3b86f85a	0.0041189613
81	0xbb4562f6	-0.00301188
82	0xbcffc456	-0.03122155
83	0x3c06e43b	0.008233125
84	0xbc957a0d	-0.018246675
85	0xbcedd3e1	-0.029031696
86	0x3b0f6be8	0.0021884385
87	0xbcf5fb96	-0.030027192
88	0xbc34768f	-0.011014595
89	0xbcab95ba	-0.020945419
90	0x3d075a3c	0.03304504
91	0xbc056242	-0.008141102
92	0x3cc9750a	0.024591941
93	0x3c8ab67c	0.016932718
94	0xbc70bfdb	-0.014694179
95	0xbc86ebc6	-0.016469847
96	0x3d0ee6e0	0.03488815
97	0x3b6ce172	0.0036145118
98	0xbcd8fb16	-0.026486915
99	0x3b6b3777	0.0035891214
100	0xbc9be8bc	-0.019031875
101	0xbd2a69ae	-0.04160469
102	0xbb4b29fb	-0.0031000364
103	0x3d115db4	0.035489753
104	0x3cbad8af	0.0228084
105	0xbcd496a1	-0.025950732
106	0x3d92d396	0.07169263
107	0x3ce8f92f	0.028439132
108	0xbc33f5bc	-0.010983881
109	0x3cfee89d	0.031116778
110	0x3cac66a1	0.021045031
111	0xbd97f6c2	-0.07420112
112	0xbd25e625	-0.040502686
113	0xbcdf1da6	-0.027235817
114	0xbcdfb386	-0.027307283
115	0x3c8b230b	0.016984483
116	0xbd8e9948	-0.0696283
117	0x3d036f6e	0.03208869
118	0x3c7f1174	0.015568126
119	0x3b2489fe	0.0025106664
120	0x3c15d205	0.009144311
121	0x3c132d91	0.008983032
122	0xbd6c67ef	-0.057716306
123	0xbc192ddc	-0.009349313
124	0x3d9d8a32	0.07692374
125	0x3c71c2e5	0.014755939
126	0x3c919dd5	0.017775455
127	0xbd159331	-0.036517326
128	0xbc7d64b3	-0.015465903
129	0xbd7bf355	-0.061511356
130	0x3c79a05c	0.015235987
131	0xbd2a2b7b	-0.041545372
132	0x3d0cccf8	0.03437516
133	0x3d35189f	0.044212934
134	0xbca0f170	-0.019646376
135	0x3ce6419a	0.028107453
136	0x3d2969a3	0.04136051
137	0x3dc15f30	0.09441984
138	0x3c4d906d	0.012546641
139	0xbd56f8c8	-0.05248335
140	0x3c348342	0.011017622
141	0x3d329384	0.043597713
142	0xbd5b6b9f	-0.053569432
143	0xbcb89c1c	-0.022535376
144	0x3be1e716	0.0068940027
145	0xbc82130c	-0.015878223
146	0xbc2d0fad	-0.010562819
147	0xbce64052	-0.028106842
148	0x3d933322	0.07187487
149	0x3c2a3d76	0.01039063
150	0xba3f3a1a	-0.00072947296
151	0x3d2fb96a	0.042901434
152	0xbd808833	-0.06275978
153	0x3c8f71fa	0.017510403
154	0xbb89ed8d	-0.0042092265
155	0x3c11d320	0.008900434
156	0xbd8ad0fc	-0.06778142
157	0xbd3a9aac	-0.045557663
158	0x3b8e1d28	0.004336972
159	0xbc441a6e	-0.011969192
160	0x3c9a1fcd	0.018813992
161	0xb7f15861	-2.8770593e-05
162	0xbd04db56	-0.032435738
163	0x3a402df3	0.0007331066
164	0xbcdf41a2	-0.027252976
165	0x3d629de5	0.05532636
166	0xbd7e7954	-0.062127426
167	0xbb14626b	-0.002264167
168	0xbd7cd1e0	-0.06172359
169	0xbc3f386f	-0.01167117
170	0x3cda1ad8	0.026624128
171	0xbcbeced8	-0.02329199
172	0x39fac924	0.00047833577
173	0x3b5b4b6b	0.00334617
174	0xbcb5deff	-0.02220106
175	0xbcf348be	-0.029697772
176	0xbd3b33af	-0.045703586
177	0x3c5f171e	0.013616351
178	0x3c7d9be6	0.015479064
179	0xbd326d21	-0.043561105
180	0xbcd60716	-0.026126426
181	0x3be4c6e7	0.006981719
182	0xbd845a75	-0.06462566
183	0x3c70456e	0.014664991
184	0x3ca5c824	0.020237036
185	0x3d3a23b6	0.045444213
186	0xbc12d1ad	-0.008961123
187	0x3d38b3c1	0.0450933
188	0x3d21a4cc	0.039463803
189	0x3d1593ef	0.036518034
190	0x3c3c5e42	0.011497082
191	0xbc9936e4	-0.018702932
192	0xbbc17aca	-0.00590453
193	0xbd49df30	-0.049285114
194	0x3ce21f3c	0.027602784
195	0xbb075e78	-0.0020655673
196	0xbc20174f	-0.009771182
197	0xbd0545d3	-0.032537293
198	0x3bbc1612	0.0057399357
199	0xbd017bbe	-0.03161215
200	0xbd84b96c	-0.06480679
201	0x3c5760f7	0.013145677
202	0x3c2bfa09	0.010496625
203	0xba8448c8	-0.0010092491
204	0xbc31d409	-0.010853776
205	0x3b344878	0.0027509015
206	0xbcc650fd	-0.02420854
207	0x3a912617	0.0011073974
208	0x3a130f13	0.0005609851
209	0x3c55dfca	0.013053844
210	0xbcba2180	-0.022721052
211	0x3b08f19e	0.0020895968
212	0xbc90cafb	-0.017674914
213	0xbc48b0d1	-0.012249188
214	0xbc4f4cbb	-0.012652571
215	0xbc8145f2	-0.015780423
216	0x3ca6c5b4	0.020357944
217	0x3cd75992	0.026287828
218	0xbd42a4ed	-0.047520567
219	0xbd1765a0	-0.03696215
220	0xbd39b2ca	-0.045336522
221	0xbcc22fce	-0.023704436
222	0x3cb0ae90	0.021567613
223	0x3ce9946a	0.028513152
224	0xbca22bc4	-0.01979626
225	0x3c6282dc	0.013825145
226	0x3d2b0b0a	0.041758575
227	0xbd694f89	-0.056960616
228	0x3ce4f71e	0.027949866
229	0x3c3054c2	0.010762395
230	0x3d5ec16e	0.054383688
231	0x3cc16555	0.02360789
232	0x3c20fb0c	0.009825479
233	0xbd13a824	-0.036049023
234	0xbcd23f13	-0.025664842
235	0x3c6f2fb1	0.014598773
236	0xbcdcb179	-0.026940094
237	0xbb25b338	-0.0025283825
238	0x3d10291c	0.035195455
239	0xba8883d2	-0.0010415262
240	0xbc953cac	-0.018217407
241	0xbc0fa8bb	-0.008768256
242	0x3cd2cb00	0.025731564
243	0xbc054ae9	-0.008135536
244	0xbd644d01	-0.0557375
245	0xbdaa4350	-0.0831362
246	0x3cd0aa73	0.025471902
247	0xbd0acbe0	-0.033885837
248	0x3b96c0b6	0.0046006097
249	0x3b467f37	0.0030288228
250	0x3d8e5a9c	0.06950876
251	0xbd4fce26	-0.050733708
252	0xbe224927	-0.15848218
253	0x3bdebba7	0.0067972722
254	0x3d3042f5	0.043032605
255	0xbd15164d	-0.03639822

network_body._body_endoder.seq_layers.2.weight f4 [256, 256]
0	0x3dd75c61	0.10515667
1	0xbdda312c	-0.1065391
2	0x3d391c9f	0.04519331
3	0xbdc0498a	-0.093890265
4	0xbca2191d	-0.019787366
5	0x3d92139e	0.07132648
6	0x3b92b323	0.004476921
7	0x3d255361	0.04036272
8	0xbca7fe3a	-0.020506967
9	0xbdea3ac9	-0.11436994
10	0xbdec74e7	-0.11545735
11	0xbe3766c5	-0.17910297
12	0x3dd6abe2	0.10482003
13	0x3d626c60	0.055279136
14	0x3d8f31db	0.06991931
15	0x39699b75	0.00022278524
16	0x3d8aa47b	0.067696534
17	0x3d0ab76a	0.033866324
18	0xbe504c0d	-0.20341511
19	0x3d04b8ef	0.03240293
20	0xbd8c9a98	-0.06865424
21	0x3c831fa0	0.01600629
22	0x3dadf0b1	0.08493174
23	0xbdc02ac7	-0.09383159
24	0xbe16eabd	-0.14737983
25	0x3e069719	0.13143577
26	0xbd609871	-0.05483288
27	0x3c646899	0.013940954
28	0xbda9305e	-0.082611784
29	0x3c834dc1	0.016028287
30	0xbd8a10b2	-0.06741466
31	0xbcce8c8c	-0.025213502
32	0xbd4b690d	-0.04966073
33	0x3c7e9c71	0.015540228
34	0xbdbf093e	-0.09327935
35	0xbd80589b	-0.062669
36	0x3c23676e	0.00997339
37	0xbadcb0b1	-0.0016837326
38	0x3ce2fd2b	0.02770861
39	0x3d7886fb	0.060675602
40	0x3e178575	0.14797004
41	0xbce260da	-0.027634073
42	0xbbd2f1f8	-0.0064375363
43	0x3d805dae	0.06267868
44	0x3c59e7a8	0.01329986
45	0xbe4bbb40	-0.19895649
46	0x3e07656c	0.13222283
47	0x3cbcccf4	0.023046948
48	0xbd0583de	-0.03259646
49	0xbdf209c9	-0.118182726
50	0x3d8164b3	0.06318035
51	0xbe3f0bcb	-0.18656842
52	0x3e102392	0.14076069
53	0xbe6283b4	-0.22120553
54	0xbdaacb35	-0.0833954
55	0xbe1e8840	-0.15481663
56	0x3b87600b	0.0041313223
57	0xbd30b51e	-0.043141477
58	0xbd16a6da	-0.036780216
59	0x3cb91762	0.022594158
60	0x3d9f3e3a	0.07775541
61	0x3e11e9ef	0.14249395
62	0x3d2d5b45	0.04232337
63	0xbc99b0f9	-0.018761145
64	0x3cfa3590	0.030543119
65	0x3c87b389	0.016565101
66	0xbd5d467e	-0.054022305
67	0xbb8e91d4	-0.00435088
68	0xbdf3f6b8	-0.11912292
69	0xbc8a74cc	-0.016901396
70	0xbca06d96	-0.019583505
71	0xbe219202	-0.15778354
72	0xbdcff5df	-0.10154318
73	0xbd47092c	-0.04859273
74	0xbe222dfd	-0.15837856
75	0xbd2ff2f3	-0.042956304
76	0xbd68287e	-0.05667924
77	0x3b159885	0.0022826504
78	0x3d9bb3a3	0.07602622
79	0x3d920606	0.07130055
80	0x3d122045	0.035675306
81	0xbca56ec0	-0.020194411
82	0x3b81353d	0.003943114
83	0xbaf0fe7e	-0.0018386391
84	0xbd5d0c43	-0.05396677
85	0xbe493870	-0.19650435
86	0xbb9b7b16	-0.0047448976
87	0xbd894546	-0.06702666
88	0x3d2b2750	0.04178554
89	0xbc2e331f	-0.010632305
90	0x3d97cc15	0.074119724
91	0x3d638315	0.05554493
92	0x3d44f2f2	0.048083253
93	0xbbdef06e	-0.006803564
94	0xbddb03df	-0.10694098
95	0x3cccc2ed	0.024995292
96	0xbd90dcc2	-0.07073356
97	0xbb62fc17	-0.003463512
98	0x3a588d78	0.00082608266
99	0xbe1110c9	-0.1416656
100	0x3de4b04e	0.1116644
101	0xbdaec8ae	-0.0853437
102	0x3e25fecf	0.16210483
103	0xbe4690c4	-0.19391161
104	0xbdfeda03	-0.12443926
105	0x3ca08250	0.019593388
106	0xbd0e3032	-0.03471393
107	0x3d87332c	0.06601557
108	0xbe0c39d0	-0.13693929
109	0x3e53b8ac	0.20675915
110	0xbd1ba49e	-0.037998788
111	0x3d87ee95	0.06637303
112	0xbd07ad57	-0.033124294
113	0xbd532283	-0.051546585
114	0x3e0c7326	0.137158
115	0xbda8a41a	-0.08234425
116	0xbde2169c	-0.11039469
117	0xbdb76cfe	-0.089563355
118	0x3db3eac4	0.08785012
119	0x3d11ea99	0.03562412
120	0xbe0f41a8	-0.1398989
121	0x3d97d53f	0.0741372
122	0x3dade1d1	0.08490337
123	0x3e09369b	0.13399737
124	0xbe3c1906	-0.1836892
125	0xbdbb5fc3	-0.091491245
126	0x3d47e84b	0.048805516
127	0xbccadfbe	-0.024764892
128	0xbd51bf56	-0.051207863
129	0xbcae79cc	-0.021298312
130	0x3a78754f	0.00094779296
131	0x3d6d0fa2	0.057876237
132	0x3ddbc06e	0.107300624
133	0xbdc34f81	-0.095366485
134	0x3d27aad4	0.0409344
135	0x3e089155	0.1333669
136	0x3cec1e5f	0.028823076
137	0xbdd89636	-0.105755255
138	0xbc82169b	-0.01587992
139	0x3d04621b	0.032320123
140	0xbd143e41	-0.036192182
141	0x3d1e172d	0.03859632
142	0xbe05aa26	-0.13053188
143	0x3ccdabdc	0.025106363
144	0xbe0605b9	-0.1308812
145	0xbd280e48	-0.041029245
146	0x3dbb1bc1	0.09136153
147	0xbd037378	-0.03209254
148	0xbd133fb4	-0.035949424
149	0x3cd45b11	0.02592233
150	0xbd732d13	-0.059369158
151	0xbd40f2e5	-0.047106642
152	0xbd44944b	-0.047992986
153	0x3c837a28	0.01604946
154	0x3db0132a	0.08597405
155	0xbd1bf0ea	-0.03807155
156	0xbdb30f13	-0.087431096
157	0xbd6b60fa	-0.05746553
158	0xbe4b4000	-0.19848633
159	0xbdeef341	-0.11667491
160	0xbdba449d	-0.09095118
161	0xbda4207d	-0.08014009
162	0x3a703e22	0.0009164532
163	0xbb86ec9d	-0.004117562
164	0xbbede081	-0.007259429
165	0xbdc107af	-0.09425294
166	0x3d27b820	0.04094708
167	0xbd3c20eb	-0.04592983
168	0xbdd8db61	-0.10588718
169	0xbd07ea06	-0.033182167
170	0xbd289f7e	-0.04116773
171	0x3d8c19b8	0.06840843
172	0xbdedaef3	-0.116056345
173	0x3c03a3cc	0.008034658
174	0xbd057552	-0.03258259
175	0xbd9cb2bb	-0.07651278
176	0x3c55541b	0.013020541
177	0xbd9d1545	-0.076700725
178	0xbda37fa6	-0.079833314
179	0x3c26db83	0.010184172
180	0xbd82e293	-0.06390872
181	0xbe6524f3	-0.22377376
182	0xbc1a1b52	-0.009405928
183	0x3cc0c4ec	0.0235314
184	0xbd86ac14	-0.0657579
185	0xbd93c4dd	-0.07215283
186	0xbde9f1b8	-0.11423057
187	0xbdc44fc9	-0.0958553
188	0x3dcef20d	0.10104761
189	0xbd6cd100	-0.057816505
190	0x3d910209	0.07080466
191	0xbe38b6ad	-0.18038435
192	0xbe1654f3	-0.14680843
193	0xbe5e7f61	-0.21728279
194	0xbb8d7889	-0.0043173474
195	0x3c9a0e9e	0.018805798
196	0x3dc905b4	0.09815541
197	0xbdabe939	-0.08394093
198	0xbc377171	-0.01119648
199	0xbe59696a	-0.21231619
200	0xbe21fac2	-0.15818313
201	0xbcce65e3	-0.025195068
202	0xbcda0059	-0.026611494
203	0xbcbe24fa	-0.023210991
204	0xbdc70028	-0.09716827
205	0xbdda9256	-0.106724426
206	0x3d84c65b	0.06483146
207	0xbe12fa7b	-0.14353363
208	0x3c231121	0.009952814
209	0x3dafdd41	0.08587123
210	0xbe8ad531	-0.27115777
211	0xbd712387	-0.058871772
212	0x3d327707	0.043570545
213	0x3d9d48b6	0.07679884
214	0xbbe58cd2	-0.0070053125
215	0x3d21a1f6	0.0394611
216	0x3a2bcb51	0.0006553429
217	0x3d13d506	0.036091827
218	0x3da1c2ef	0.07898509
219	0x3d06e400	0.03293228
220	0xbdfa423c	-0.122196645
221	0x3b438b7c	0.0029837778
222	0x3dfea93e	0.12434624
223	0x3d4b2cb5	0.049603183
224	0xbc99206e	-0.018692221
225	0xbc7c530e	-0.015400661
226	0xbe09a5e5	-0.1344219
227	0xbdd48936	-0.103777334
228	0x3d8f5265	0.069981374
229	0xbcd7cb0a	-0.026341934
230	0x3db1388b	0.08653363
231	0x3d084f4f	0.03327876
232	0xbc4e4b37	-0.012591175
233	0x3dcce9e6	0.1000555
234	0xbc50a778	-0.01273524
235	0xbda909a0	-0.08253789
236	0x3e157247	0.14594375
237	0x3d38e82d	0.045143295
238	0x3e08e859	0.13369884
239	0xbcec0708	-0.028811947
240	0xbd960154	-0.07324472
241	0x3c448f61	0.011997075
242	0x3b5e103a	0.0033884184
243	0xbd9f2c05	-0.07772068
244	0x3da7b778	0.08189291
245	0xbd00ae6d	-0.031416345
246	0x3d822122	0.06353976
247	0x3da4b351	0.080420144
248	0x3ca8e2ee	0.020616021
249	0xbd9b6aeb	-0.07588752
250	0x3d0419f6	0.03225132
251	0x3c2fa5bc	0.0107206665
252	0xbca2bbc4	-0.019864924
253	0xbc6d4a5c	-0.014483061
254	0x3dbd078b	0.09229954
255	0xbdcc239b	-0.09967729

network_body._body_endoder.seq_layers.2.bias f4 [256]
0	0x3cc85582	0.024454836
1	0xbc9305fc	-0.01794719
2	0xbc3e65c5	-0.011620943
3	0xbd0de0d0	-0.034638226
4	0xbcb6b043	-0.022300845
5	0xbcefa528	-0.029253557
6	0xbc39735d	-0.011319009
7	0xbd0fec65	-0.035137553
8	0xbcc6a3b7	-0.024247987
9	0xbd16a938	-0.036782473
10	0xbd3fbada	-0.046809055
11	0xbcc71721	-0.02430302
12	0xbc9f7122	-0.019463126
13	0x3a7c19c8	0.0009616879
14	0xbc65c7e3	-0.0140247075
15	0xbad14c10	-0.0015968103
16	0xbbb2eea9	-0.0054605794
17	0xbccb9be7	-0.024854613
18	0xbc075c77	-0.008261791
19	0xbd0cc16a	-0.03436414
20	0xbc672b0c	-0.014109384
21	0xbbafdf46	-0.0053671924
22	0x3cbc31f4	0.022973038
23	0xbc62e0fc	-0.013847586
24	0xbcde1ac4	-0.027112372
25	0xbc801e9b	-0.015639594
26	0xbd25f57e	-0.040517323
27	0xbc8aaf8b	-0.016929409
28	0xbcd8caf1	-0.026463958
29	0xbc498c6c	-0.012301546
30	0x3bc7435e	0.006081029
31	0xbc9e4d13	-0.019323861
32	0xbd463a30	-0.048395336
33	0xbceeff31	-0.02917442
34	0xbcfa7329	-0.03057249
35	0x3c1659f2	0.009176718
36	0xbbd57951	-0.006514706
37	0xbcd30b85	-0.025762329
38	0xbc29020e	-0.010315431
39	0xbcd1420e	-0.025544193
40	0xbd15b8a6	-0.036553048
41	0xbd058e58	-0.032606453
42	0xbd2aa941	-0.04166532
43	0xbd0b4322	-0.03399957
44	0xbd1e50db	-0.03865133
45	0xbc65c883	-0.0140248565
46	0xbc5289b1	-0.012850211
47	0xbcc29b18	-0.023755595
48	0xbcc9460e	-0.024569537
49	0xbd4aa2df	-0.049471732
50	0x3b910c7a	0.004426536
51	0xbca2cd78	-0.019873366
52	0xbd00d5c7	-0.031453874
53	0x3d330e9b	0.0437151
54	0xbcf138f7	-0.029446108
55	0xbb695ef6	-0.003560958
56	0xbcb7f031	-0.0224534
57	0xbd59b8f4	-0.0531549
58	0xbc9bbcd2	-0.019010935
59	0x3af29c8b	0.0018509788
60	0x3c9fd030	0.019508451
61	0xbcdae675	-0.026721219
62	0xbc881ea4	-0.016616173
63	0xbcd154ab	-0.025553068
64	0xbcf6651b	-0.030077508
65	0xbc13e83a	-0.009027535
66	0xbb80f583	-0.0039355173
67	0x3c87bf0d	0.016570592
68	0x3c499ae8	0.012304999
69	0xbd0c4df4	-0.03425403
70	0xbca0bc3a	-0.019621003
71	0x3cd7e7a2	0.026355568
72	0xbc5759fd	-0.0131440135
73	0xbbbc07da	-0.0057382407
74	0x38d27ab5	0.00010036436
75	0xbca0a04c	-0.019607686
76	0xbcd7b0c8	-0.026329413
77	0xbce0d61b	-0.027445843
78	0xbcc007e3	-0.02344126
79	0xbc8912c3	-0.01673258
80	0xbcef1c23	-0.029188221
81	0xbc3db665	-0.011579131
82	0xbd228008	-0.03967288
83	0xbcbfb1e4	-0.023400255
84	0xbcc9d553	-0.024637854
85	0xbbd43b7c	-0.0064768177
86	0xbd51622f	-0.051119026
87	0x3d6bb3a6	0.057544373
88	0xbc8c04c5	-0.017092118
89	0x3d119e64	0.035551444
90	0xbc3d3d68	-0.011550285
91	0x3b9a144f	0.004702128
92	0xbd0a1e66	-0.033720396
93	0xbd1cd717	-0.038291063
94	0xbc03be17	-0.008040926
95	0xbd196e66	-0.0374588
96	0xbc43a6c8	-0.011941619
97	0xbcf49a99	-0.029858874
98	0xbc9c1cfe	-0.019056793
99	0xbac5df72	-0.0015096499
100	0xbd0e4300	-0.034731865
101	0xbc4e0e3b	-0.012576635
102	0xbd0c13ae	-0.034198456
103	0xbcf17ed5	-0.029479424
104	0xbd85e490	-0.065377355
105	0xbd1ce1ac	-0.038301155
106	0x3c09ef69	0.008418896
107	0xbc288b19	-0.01028707
108	0xbabed405	-0.0014559036
109	0xbd1ac0a2	-0.037781365
110	0x3cf27adb	0.029599598
111	0x3bc60832	0.0060434574
112	0xbc2c033a	-0.010498816
113	0x3c294b45	0.010332887
114	0x3c5eac05	0.013590817
115	0xbd20310a	-0.039109267
116	0xbd355466	-0.04426994
117	0x3c303a3f	0.010756074
118	0xbd3133d2	-0.04326231
119	0xbca571c2	-0.020195846
120	0x3d53604c	0.051605508
121	0xbd13e3c0	-0.03610587
122	0xbcbb6a21	-0.022877755
123	0xbc6b282b	-0.0143528385
124	0xbcc2ff34	-0.023803331
125	0xbd466815	-0.048439104
126	0x3b9dbb4c	0.0048135873
127	0xbd18d54a	-0.037312783
128	0xbd12b6f1	-0.035818998
129	0xbc23bc38	-0.009993605
130	0xbd05f452	-0.032703705
131	0xbca09f9c	-0.019607358
132	0xbcbf84fa	-0.023378838
133	0x3cfeecff	0.031118868
134	0xbd7f64c2	-0.06235195
135	0xbc768aaa	-0.0150477085
136	0x3cdf9aa5	0.02729542
137	0xbcabdecd	-0.020980263
138	0xbd00260a	-0.031286277
139	0xbdb01ac4	-0.08598855
140	0x3d273719	0.04082403
141	0xbcd49d66	-0.02595396
142	0xbd272446	-0.040806077
143	0xbb2f5779	-0.0026755019
144	0xbd13ada6	-0.036054276
145	0xbd1abb85	-0.03777649
146	0xbd33b957	-0.043877926
147	0xbd103b3a	-0.035212733
148	0x3b3cb236	0.0028792745
149	0xbd36a4de	-0.044590823
150	0x3d16801f	0.03674328
151	0xbcf3dc7a	-0.029768217
152	0xbc18d842	-0.009328904
153	0xbd3ddb8e	-0.04635196
154	0xbcf0d4ff	-0.02939844
155	0xbd390e71	-0.045179788
156	0xbce87126	-0.028374266
157	0x3acd31e7	0.0015655131
158	0xbc3f788d	-0.011686456
159	0xbca47002	-0.02007294
160	0x3d68128a	0.056658305
161	0xbd00feb1	-0.031492893
162	0xbbe50395	-0.0069889524
163	0xbd47d70f	-0.04878908
164	0xbc5b9a8a	-0.013403544
165	0x3cc60653	0.024172937
166	0x3d1d57fe	0.038413994
167	0x3bbbca37	0.005730893
168	0x3b92a1d1	0.0044748564
169	0xbd1b9d57	-0.037991848
170	0xbd2ac2f0	-0.041689813
171	0x3d381d81	0.044950012
172	0x3c51305c	0.012767877
173	0x3d013bba	0.0315511
174	0xbcb77320	-0.022393763
175	0xbaa88845	-0.0012857994
176	0x3cf21ceb	0.029554805
177	0xbd06894d	-0.032845784
178	0xbd1e5eda	-0.038664676
179	0x3c2f550d	0.01070143
180	0xbd2947ff	-0.041328426
181	0x3c284820	0.010271102
182	0xbcd06905	-0.025440702
183	0xbb9f3d3e	-0.0048595956
184	0xbcedc49d	-0.029024417
185	0xbca32078	-0.019912943
186	0xbccfa6e3	-0.025348132
187	0xbc684780	-0.014177203
188	0xbce544e1	-0.027986946
189	0xbc333898	-0.010938786
190	0xbc86e57f	-0.016466854
191	0xbc31e71a	-0.010858322
192	0xbc8a02f3	-0.01684711
193	0x3b4ba09f	0.003107108
194	0xbce94b95	-0.028478423
195	0xbd545f1c	-0.051848516
196	0xbcd226cd	-0.025653267
197	0xbd7b54f1	-0.061360303
198	0xbad3f1f3	-0.0016170129
199	0xbca6963b	-0.020335307
200	0xbd38c471	-0.045109216
201	0xbc540287	-0.012940056
202	0xbcf483a5	-0.02984793
203	0x3ab0948e	0.0013472007
204	0xbbb1bee2	-0.0054243663
205	0xbd07a778	-0.033118695
206	0x3cb0ac21	0.021566452
207	0xbd03cb01	-0.03217602
208	0xbd0b7c57	-0.034054127
209	0x3c955314	0.018228091
210	0xba839170	-0.0010037851
211	0xbcfb1259	-0.030648397
212	0xbd13ea05	-0.03611185
213	0xbd1cf14c	-0.038316056
214	0xbc4436e7	-0.01197598
215	0xbbc81f43	-0.0061072423
216	0xbd0f6787	-0.03501084
217	0x3d1b46ff	0.037909504
218	0xbd40f25c	-0.047106132
219	0xbd2ebe1e	-0.04266178
220	0xbc3eb268	-0.011639215
221	0xbd06fc4e	-0.03295546
222	0xbd794b14	-0.060862616
223	0xbd027679	-0.031851266
224	0xbd0988ac	-0.033577606
225	0xbc511c59	-0.012763106
226	0x3ad6996c	0.0016372628
227	0xbcc219e9	-0.023693996
228	0x3d03f848	0.0322192
229	0xbcf5f49f	-0.030023871
230	0xbc9b6152	-0.018967304
231	0x3c63b7c4	0.013898794
232	0xbcb2a69f	-0.021807967
233	0xbc916067	-0.017746164
234	0xbd0d500b	-0.034500163
235	0xbcd0a2b7	-0.025468213
236	0xbca67dce	-0.02032366
237	0xbd87f5b5	-0.06638662
238	0xbcda084a	-0.02661528
239	0xbb8fbd9e	-0.004386618
240	0xbcac2177	-0.021012051
241	0xbd4ead9b	-0.05045853
242	0xbcb07c2a	-0.021543581
243	0xbcffcdb1	-0.031226011
244	0xbc7276a5	-0.014798795
245	0x3d0db869	0.034599695
246	0x3b18fc27	0.0023343654
247	0xbd831c38	-0.06401867
248	0xbc5e9fd3	-0.01358791
249	0x3ca74ccb	0.02042236
250	0xbc4616d7	-0.012090406
251	0xbc715886	-0.014730578
252	0xbcd33bad	-0.025785292
253	0xbd1bef8f	-0.038070258
254	0xbd40a582	-0.04703284
255	0xbc421aca	-0.011847207

action_model._continuous_distribution.log_sigma f4 [1, 2]
0	0x3ea9f691	0.33195928
1	0x3e26e433	0.16297989

action_model._continuous_distribution.mu.weight f4 [2, 256]
0	0xbdc4a8ff	-0.09602546
1	0xbcbb142e	-0.02283677
2	0x3d996521	0.07489992
3	0xbc7da28e	-0.015480651
4	0x3bdcff96	0.0067443354
5	0xbbacda90	-0.005275078
6	0xbd2e52e2	-0.042559512
7	0xbce56bfd	-0.028005594
8	0x3d85c916	0.06532495
9	0xbc1608dc	-0.009157386
10	0x3c3120cb	0.010811041
11	0xbd52fb97	-0.051509466
12	0xbd52d7eb	-0.051475447
13	0x3d48f3c9	0.049060617
14	0xbc8620dc	-0.01637309
15	0x3b43bc7e	0.0029866989
16	0x3d5631ff	0.052293774
17	0xbc4f8a19	-0.012667202
18	0x3d0191b1	0.031633083
19	0xbc5cb5e5	-0.013471101
20	0xbd73e856	-0.059547745
21	0x3cb0b76c	0.021571837
22	0x3d5cff97	0.053954687
23	0x3dff00fa	0.12451358
24	0xbc0cac1c	-0.008585956
25	0xbcfac930	-0.030613512
26	0xbc26442e	-0.010148091
27	0x3c48adeb	0.0122484965
28	0xbd93a919	-0.07209987
29	0xbd82531c	-0.06363508
30	0x3d379269	0.044817362
31	0xbc443d2c	-0.011977475
32	0xbccc45b4	-0.02493558
33	0xbd026e7b	-0.031843644
34	0xbd2516f6	-0.0403051
35	0xbb083623	-0.002078422
36	0x3cdf494f	0.027256636
37	0xbbc97d91	-0.006149002
38	0x3ba9f93a	0.005187181
39	0x3c9dec81	0.019277813
40	0xbcd4ce64	-0.025977321
41	0xbc218f5c	-0.00986084
42	0xbd3768a3	-0.044777524
43	0xbd595e2a	-0.053068317
44	0xbc8bbb38	-0.017057046
45	0x3d7a8bed	0.0611686
46	0xbd1b8fe9	-0.03797904
47	0x3d7abda9	0.06121603
48	0xbd71461d	-0.058904756
49	0xbc1905d8	-0.009339772
50	0x3b9d85de	0.004807218
51	0xbd102c3b	-0.03519843
52	0xbd20732b	-0.039172333
53	0x3d28f4d1	0.0412491
54	0xbd38596c	-0.045007154
55	0x3e0c1953	0.13681535
56	0xbd099983	-0.033593666
57	0xbc036b94	-0.008021254
58	0x3d83eb56	0.06441371
59	0x3c83c6d9	0.016086029
60	0x3d1122e1	0.035433654
61	0xbd6b33ed	-0.057422567
62	0x3da19bc0	0.07891035
63	0xbd4d6fff	-0.050155636
64	0xbce33d94	-0.027739324
65	0x3d1ab295	0.037767965
66	0xbc35157c	-0.011052486
67	0xbc2d95d6	-0.010594806
68	0x3d2b660f	0.041845378
69	0xbcb3fbaa	-0.021970589
70	0xbcf901b5	-0.030396322
71	0x3d2af627	0.041738655
72	0xbcf630fc	-0.030052654
73	0xbd6a653a	-0.057225443
74	0xbdab001e	-0.08349632
75	0x3d33fb7b	0.043941002
76	0x3ae469be	0.0017426533
77	0xbc375803	-0.011190417
78	0xb98c861b	-0.00026802797
79	0x3c1cce0a	0.009570608
80	0xbd763836	-0.0601122
81	0x3d5ecd86	0.05439522
82	0x3d19265d	0.0373901
83	0x3b8f07cb	0.0043649427
84	0xbc9832fc	-0.018578999
85	0xbd308278	-0.043093175
86	0xbd54a57a	-0.051915623
87	0xbe086df6	-0.13323197
88	0xbcb936b5	-0.022609094
89	0x3c97927e	0.01850247
90	0x3daed537	0.08536761
91	0xbd8dd0a6	-0.06924562
92	0x3d4cfcbf	0.050045725
93	0xbccd1074	-0.02503226
94	0x3b98d6c2	0.004664273
95	0xbd137a01	-0.036005024
96	0xbcaaf4e0	-0.020868719
97	0xbd15419a	-0.036439516
98	0xbc73c155	-0.014877637
99	0x3d7fc8c7	0.062447336
100	0xbc0c36ea	-0.008558014
101	0xbd04884c	-0.032356545
102	0xbd0aa27b	-0.03384636
103	0xbc35e8cc	-0.011102866
104	0x3c8140ac	0.015777908
105	0xbc89d21c	-0.01682382
106	0x3c8641b9	0.01638876
107	0xbd9552b8	-0.07291168
108	0xbd6d7d58	-0.057980865
109	0xbcb2a476	-0.021806937
110	0xbd8f8064	-0.070069104
111	0x3d3cbff5	0.046081502
112	0x3cd31baf	0.025770037
113	0x3cf266d9	0.029590057
114	0xbdc65b3d	-0.09685371
115	0xbd365063	-0.044510256
116	0x3cfeb970	0.031094283
117	0x3cb39741	0.02192271
118	0xbca68c40	-0.020330548
119	0x3c4baa43	0.01243073
120	0xbde2a280	-0.11066151
121	0xbd19a6aa	-0.03751246
122	0x3d537935	0.051629264
123	0xbd814908	-0.06312758
124	0xbc87590b	-0.016521951
125	0xbd0c3d54	-0.034238175
126	0x3d470465	0.048588175
127	0xbcb40265	-0.021973798
128	0xbd131df4	-0.035917237
129	0x3cc9ebe8	0.024648622
130	0xbd8c92d0	-0.0686394
131	0xbcacf79d	-0.021114165
132	0xbd884c72	-0.06655206
133	0x3de89718	0.11356944
134	0xbcce6728	-0.025195673
135	0x3bfd352c	0.007727286
136	0x3d306811	0.043067995
137	0xbce89d11	-0.028395208
138	0xbcf4e34f	-0.029893545
139	0xbcb9f4be	-0.02269971
140	0xbde590f3	-0.112092875
141	0xbcc876b7	-0.02447067
142	0xbd1a0ae5	-0.037608046
143	0xbda01a45	-0.078175105
144	0xbd5db3f4	-0.054126695
145	0xbce4397e	-0.027859446
146	0xbc16677c	-0.009179946
147	0xbc90fe47	-0.017699374
148	0x3d06dcd4	0.03292544
149	0x3c88504d	0.016639853
150	0xbdbff162	-0.09372212
151	0xbcaa0995	-0.020756522
152	0x3be49e16	0.006976853
153	0xbb113741	-0.0022158178
154	0x3c7865d4	0.0151609965
155	0x3d3e5e6f	0.046476778
156	0xbd272371	-0.040805284
157	0x3aaee83d	0.0013344359
158	0xbd52b3af	-0.05144089
159	0xbcb8adc5	-0.022543797
160	0xbe1659e7	-0.14682733
161	0xbcf79aef	-0.030225245
162	0x3cdc04be	0.02685773
163	0xbcc442d3	-0.023957646
164	0xbd40e03e	-0.047088854
165	0x3d6c8d01	0.05775166
166	0x3d1df14e	0.038560204
167	0xbcc0010b	-0.023437997
168	0x3d055630	0.032552898
169	0xbbea2325	-0.007145303
170	0xbd314730	-0.04328078
171	0x3d69fc23	0.057125222
172	0x3d9d8411	0.07691205
173	0x3d1508f7	0.036385503
174	0xbc138ccb	-0.009005736
175	0x3c714c4a	0.014727661
176	0xbd95683e	-0.07295273
177	0xba262b4f	-0.0006338851
178	0xbd12a11d	-0.03579818
179	0xbd7381b2	-0.05944986
180	0xbd164d23	-0.036694657
181	0x3cefa993	0.029255664
182	0xbb601c1c	-0.0034196442
183	0xbb0c3c97	-0.002139842
184	0xbd951230	-0.072788596
185	0x3d7b49a5	0.06134953
186	0xbc106f28	-0.008815564
187	0xbd5914d2	-0.05299837
188	0x3b6d4685	0.0036205363
189	0x3d9945db	0.07484027
190	0x3ba9b953	0.005179563
191	0xbb6ffc44	-0.0036618868
192	0x3d8bb7ae	0.068221435
193	0xbd7c9764	-0.061667815
194	0xbcade0f1	-0.021225424
195	0xbbee958a	-0.00728101
196	0x3c5736e7	0.013135648
197	0xbb4c4f97	-0.003117537
198	0xbd1718d0	-0.036888897
199	0xbcd7b39b	-0.02633076
200	0x3cd57a81	0.026059391
201	0xbcf6203c	-0.030044667
202	0xbd029daa	-0.03188864
203	0xbd8d2fe5	-0.06893901
204	0x3ba35199	0.0049840924
205	0xbd2976ad	-0.041372944
206	0x3c80a702	0.015704636
207	0xbcde95bb	-0.027171006
208	0xbd4193a3	-0.047259938
209	0x3def622d	0.116886474
210	0xbbca5daa	-0.0061757164
211	0x3cb864d9	0.022509025
212	0xbd63c693	-0.055609297
213	0x3ab426c8	0.0013744468
214	0xbc7b007d	-0.015319941
215	0x3d4e11d1	0.05030996
216	0xbd304550	-0.04303485
217	0x3d070852	0.03296692
218	0xbcb53d31	-0.022123905
219	0xbc85ad91	-0.016318114
220	0x3c5dce65	0.013537978
221	0xbb15e775	-0.0022873555
222	0x3aaa6f3a	0.0013003119
223	0x3d293d20	0.04131806
224	0xbbb887ca	-0.0056314217
225	0x3d699681	0.057028297
226	0x3d502fce	0.05082684
227	0xbca69041	-0.020332457
228	0xbdcaba46	-0.0989881
229	0xbcd32db3	-0.025778627
230	0xbc9a5046	-0.018837105
231	0x3cc0fa69	0.023556905
232	0xbca4e458	-0.020128414
233	0xbd9a0e5f	-0.07522272
234	0xbb8ccbe9	-0.004296769
235	0xbc890ce5	-0.016729781
236	0xbd083ce4	-0.033261195
237	0x3ae7c8d2	0.001768375
238	0xbd713fc7	-0.058898713
239	0x3c2de8bd	0.010614571
240	0xbd8e886c	-0.06959614
241	0x3cd92cb7	0.02651058
242	0x3d7a17fc	0.06105803
243	0xbd0fecbe	-0.035137884
244	0xbbb35b1f	-0.005473509
245	0x3d807c2d	0.06273685
246	0xbb226366	-0.0024778484
247	0xbc25c79d	-0.010118392
248	0xbcadfc95	-0.021238605
249	0xbd333376	-0.04375025
250	0xbd90162c	-0.07035479
251	0x3d6ac8b9	0.05732033
252	0xbd36f6b4	-0.04466887
253	0x3d12580e	0.035728507
254	0xbd43a44c	-0.047764108
255	0xbcfca2a6	-0.030839276

action_model._continuous_distribution.mu.bias f4 [2]
0	0x3cfe5d17	0.031050248
1	0x3db4bce3	0.0882509
