Assets/Models/7x7/7x7 Model 4MIL steps.onnx (onnx, 297963 bytes, 7 tensors)

network_body._body_endoder.seq_layers.0.weight f4 [256, 29]
00000000: 50a5 d0bd 8ba2 c5bd e372 adbe 4c2e 383e
00000010: 63dd c7be 36d9 05be debe 4ebe 4f5e 00be
00000020: 0397 553e 3b87 123e e5a8 65be 22c7 48be
00000030: 31b1 c9bd d08a 393e 274a 32be cd46 14be
00000040: 52a0 82be cc0a 9cbe af63 e33d d804 94bd
00000050: 7805 94be a306 4dbd 010c 9ebc 8684 453e
00000060: e8ba e9ba 85ba 85bb 1238 e53e cbf4 efbe
00000070: f773 2a3e 4464 d93d 2169 513d f33f a63d
00000080: b29f 37be 6c4c 0dba 9ee3 e8be 0eb7 753e
00000090: d82d 20be 334f fb3d 88db 6dbe a7fb 95bd
000000a0: f8ae 0cbe e007 edbc e238 9abd 0750 18be
000000b0: ff61 8f3e 3c8e 6c3e e96c 3bbe df3e 063e
000000c0: 49d1 b33b e0f8 173e e3cc a33e 464c b9bc
000000d0: 1a0b 5d3e f34c c8bd 1ab2 253e 01ce 5cbe
000000e0: 5ca9 a3be 6d97 d93d 2c78 ca3d 2107 2e3e
000000f0: bff9 29be 7283 2cbe 8b0d 08be 4a33 6b3d
00000100: faaa 773d 3c76 27be 9660 bbbe afe5 c53c
00000110: eb91 bb3d 74e4 a9be e4fb 803d 654b c7be
00000120: b65e 853b 5ba1 29be d9da c03e 9c69 13be
00000130: 8331 81bd 5130 e83e ab65 a7bd e70b 3e3e
00000140: 99ff 423e d94c 36bd 8240 b43d de65 6e3d
00000150: 2746 873e 2b15 0b3f 8b8f 243e 8c12 643e
00000160: 3ba9 b03e 2ee3 45be bc73 4b3d 03f5 7dbe
00000170: f53f 083e 7618 053e 363a 81be 2558 863e
00000180: 4339 a0bc b0d1 27be 5e91 893d 61b5 8f3e
00000190: be88 abbd 55a1 ce3d cae3 443e 23c1 1fbe
000001a0: 1311 a03d 2ca0 e3bc 18f5 91bd fd5d 0e3e
000001b0: ef08 eb3d a43a 5abe 844d 8e3e fe0a c33c
000001c0: 5bfc abbd 033f 923d fa98 ab3e 1223 d1be
000001d0: 1f8c cd3c 834c 1abe 01d3 93be 6085 36be
000001e0: f991 fe3d 6625 52bd bb15 a1bd d92e 2b3e
000001f0: 1c94 10be 7be1 263e 1ccb 3abe bece 8c3e
00000200: 7753 b83d 72e7 c9bd 04da 79bd 388e 58be
00000210: 03f8 51be 2b9d 963d 096e 243e 7d82 eabd
00000220: d863 93bd 6700 293e 23ef 4bbe 223c 7d3e
00000230: b3d5 9bbd 47e4 99be eab5 a63e c337 3b3d
00000240: 4410 72bd d6f9 8e3d 6e86 863d 39f2 133b
00000250: 0de5 66be f081 22be 1896 5bbe 1297 e5ba
00000260: 74ff 123d 9a02 993a 4846 343e 3ebe d43d
00000270: 48f1 1f3d a6db 033e 8518 d93d fa94 273e
00000280: f391 343e 0779 0c3e c742 49be 7b44 8cbe
00000290: 7368 8a3d e095 aa3d b74c fb3d 4979 713d
000002a0: c2f8 e73c dccc 82bd c1f5 863e 270a b73b
000002b0: a91e 7c3d 4e67 2cbe 4d35 963d 3413 93be
000002c0: 0f26 35be f59f 89bd cec1 cd3b a61e a2be
000002d0: 81e8 3c3e 628c aa3c bc26 2ebe 630d e8bc
000002e0: b8ad d1be ccde aabe bf48 3ebe 8a6a 633d
000002f0: d058 1c3e 23c2 8f3d a07f 64be a510 aabd
00000300: 2395 67be 49af cc3d 1c58 a03c 66b1 94be
00000310: d1a6 813c 1ed7 e0bc 4758 e43d 7c13 77be
00000320: 4802 84bc bfbd b63d a9d7 b2bd 2782 5f3c
00000330: e947 8a3e 1bcc 40be afc2 633e 9c4f b3be
00000340: d2c3 40bc e6f5 1fbe ec3b 80be fd0e e33d
00000350: d823 b83d 7e3b 593e c43a 923e 94a4 e1bc
00000360: 1390 8abe 4b23 993e bc50 a5bd 1380 61be
00000370: 6ebb 10be 8340 933d 5b48 303e d02f f9bd
00000380: d44b a53e f4bc 093d 881c de3d 1eef 453d
00000390: 81f1 5b3e a84e 9d3d b59c 743e c4ae d1be
000003a0: d004 c6bd 95ba 9abd 0797 a43d 8d4b 9f3d
000003b0: 8d65 5a3e affc 333e 3ef9 333d 5508 1ebe
000003c0: 3601 003d e3cd 2cbd 3e0b 283e 59f6 803e
000003d0: aadf 8bbe 7e19 383e 8fcd 14be 32d2 0fbe
000003e0: 6fd3 1dbb 1dd1 b23e 830b 1e3d 9910 b8be
000003f0: 49cc 96be 9eff 84be 3b2f 0ebe 435e 24be
-0.10187781 -0.09650143 -0.33876714 0.17986411 -0.39036092 -0.1307114 -0.20189998 -0.12535976
0.20858388 0.14309399 -0.2242771 -0.19607213 -0.0984825 0.18119359 -0.174111 -0.14480133
-0.2551294 -0.30476987 0.111029975 -0.07227486 -0.28910422 -0.050055157 -0.019292833 0.19288835
-0.0017832192 -0.0040810728 0.4476934 -0.4686645 0.166458 0.10614827 0.05112565 0.08117666
-0.17932013 -0.0005390111 -0.45486158 0.23995611 -0.15642488 0.122709654 -0.23228276 -0.073233895
-0.1373862 -0.02893442 -0.07530381 -0.14874278 0.28004453 0.23101133 -0.18303265 0.13109921
0.005487595 0.14841032 0.31992254 -0.022619378 0.21586266 -0.09780302 0.16181222 -0.21562959
-0.31965148 0.10624585 0.09886202 0.16994907 -0.16599177 -0.16847017 -0.13286416 0.05742196
0.06046579 -0.16353697 -0.36597127 0.024157373 0.09158691 -0.33182108 0.06298044 -0.3892471
0.0040701283 -0.16565458 0.37666968 -0.14395756 -0.06308272 0.45349362 -0.081736885 0.18559228
0.19042815 -0.04450688 0.088013664 0.058202617 0.2642071 0.54329175 0.16070382 0.222727
0.34504113 -0.19324943 0.04967092 -0.24800496 0.13305648 0.12997612 -0.25239724 0.26239124
-0.019558555 -0.16388583 0.0671718 0.2806807 -0.08375691 0.100893654 0.1922752 -0.1560102
0.07815757 -0.027786337 -0.07126826 0.13903041 0.11476313 -0.21311432 0.27793515 0.023808952
-0.08397742 0.07140925 0.3351515 -0.4084707 0.025091229 -0.1506825 -0.2887192 -0.17824316
0.12430186 -0.051305197 -0.07865473 0.1671709 -0.14118999 0.16296951 -0.18241543 0.27501482
0.09000295 -0.09858598 -0.06099893 -0.21148002 -0.20504765 0.07354196 0.160576 -0.1145067
-0.07196778 0.1650406 -0.19915442 0.2472997 -0.07609119 -0.30056974 0.32560664 0.045707475
-0.059097543 0.06981246 0.06568609 0.0022574796 -0.22548313 -0.1586988 -0.21443975 -0.0017516336
0.03588815 0.0011673749 0.17604935 0.10387848 0.039048463 0.12876758 0.1060038 0.16365424
0.176338 0.13718043 -0.1965438 -0.27395996 0.06758203 0.08329368 0.122704916 0.058953557
0.02831686 -0.0638673 0.2635937 0.005585927 0.061552677 -0.16836283 0.07334385 -0.28725588
-0.176903 -0.067199625 0.006279207 -0.31664008 0.18448068 0.020818893 -0.17006963 -0.028326696
-0.4095285 -0.33373106 -0.18582438 0.055521525 0.15268254 0.070194505 -0.2231431 -0.08303956
-0.22615485 0.099943705 0.019573264 -0.29041594 0.015826615 -0.027446326 0.1114965 -0.24128526
-0.016114369 0.0892291 -0.0873254 0.013641871 0.27007988 -0.1882786 0.22242235 -0.35021675
-0.011765437 -0.15621147 -0.25045717 0.11086843 0.08991212 0.212141 0.2856046 -0.027544297
-0.27063045 0.2990974 -0.080720395 -0.22021513 -0.14133999 0.07190039 0.17215101 -0.12167323
0.32284415 0.033627465 0.10845286 0.048323743 0.21478845 0.07681018 0.23887904 -0.40953648
-0.09668887 -0.07555119 0.08036619 0.07778082 0.21327801 0.1757686 0.043938868 -0.15432866
0.031251155 -0.042188536 0.16410539 0.25187948 -0.2731908 0.17978474 -0.1453154 -0.14045027
-0.0024082323 0.34925166 0.038585197 -0.35950163 -0.29452732 -0.2597627 -0.13885204 -0.16051583

network_body._body_endoder.seq_layers.0.bias f4 [256]
00000000: 7a69 ce3b a65e 16bb 4bc8 b2bb e218 443c
00000010: ea4e e93c ba51 a0bd 1e77 9dbb bfd9 2d3d
00000020: b370 09bd fbd2 ce3c 308a 6bbd 0955 49bc
00000030: 7807 d23c 2eac 8abb 950a 1b3c 7a5a dfbb
00000040: d831 0abd 64f3 33bd 8b6f babc 869b eabb
00000050: f454 9c3c c6dc d4bc d176 ba3c d75c 903d
00000060: 0e2a c1bb d5d2 0fbc 31e5 9cbd b93d 163d
00000070: db46 f33c 652f fcbc 892a e5bc 05e8 4a3d
00000080: 1b3f 393c 0881 44bd 7102 e9bc 0dd0 e13c
00000090: 8d84 1a3d 372f 72bd 7edf 95bd b7c1 2dbc
000000a0: e40f 46bd 65c2 e93c 8efb 1bbd 2a82 abbc
000000b0: 6bc7 6e3d 7e28 1e3d fec5 97bc 5e18 053d
000000c0: 078f 7b3c 2676 fabc a493 e93c eef7 5dbc
000000d0: dfc2 adbb 9afa 983c 52c0 e5bc f6b4 e13c
000000e0: b6a9 64bc a4f1 993c 06b9 c5bd cdd7 de3c
000000f0: e1cc 423c 7839 8dbc f76d e23c b25c 5dbc
00000100: e930 233d 086d ae3b 8d3c 143c 0674 a63b
00000110: 713c dc3c a694 42bd 3c39 5d3c 68cc 2ebc
00000120: 8a3c f0bc b3d7 27bd 46a5 08bc db0b 8cbc
00000130: 8fb8 53bd 1f71 81bc 7453 ddbb 991a 3cbb
00000140: 2dca ff3c df35 a6bc f5f7 cebc 3ad6 4dbc
00000150: 5af2 87bd 14e3 88bd 4dc4 24bd ce1e 1cbd
00000160: a5a9 9dbd f180 243d e040 f2bc 29ac 043d
00000170: 2493 3ebc a14e 333b 0b1a 903c 67c3 ccbc
00000180: 16d8 4cbc f622 e0bc 1bf6 08bc c088 e53c
00000190: 522b 8a3c f076 3f3d c395 5f3d 80c7 003d
000001a0: a02d 54bb a10f d33b b8c5 9cbd c9bd 31bc
000001b0: a726 80bd cca8 c939 5ae5 2fbd 0291 3a3d
000001c0: a95e 97bc 1b52 013d 3535 5cbd f1f8 9f3c
000001d0: e33b 62bc 999c 8c3c 5198 e3bc 5385 033d
000001e0: d01e 673d 3b82 243d 30ad 9bbc de0f 2f3c
000001f0: 5ae6 733d 0ebc 1dbd af27 e5bb 07b3 2ebc
00000200: 9b84 c33c b1b3 18bd 5fa5 613b 51f3 d4bb
00000210: 3f5a d83c c4ba 4dbb 1523 adbd ccd6 3f3b
00000220: c23f 0dbb 4b1b 1bbc 2e6c 533d fbfd 02bc
00000230: 2d37 5f3d 11f7 3ebd 9a80 293b c6b2 81bd
00000240: 2d29 3abd 5a54 64bb fd6a 4d3a 5fc2 4ebd
00000250: 6e0c 9abd 3047 af3b 9059 dcbc 8152 48bd
00000260: 636e 88bc 2291 6ebc 4acf 6e3d 6a21 683d
00000270: efbb 51bd 7802 65bc 5e1a fd3c 6e70 ac3c
00000280: 3711 aa3c 5b80 b53b dd1a febc 618a 6e3d
00000290: b43f b93c 3016 43bc e7e4 30bc 719f 87bb
000002a0: a743 30bc 67c2 a5bc 7b5f 633b 759b 74bd
000002b0: 4e1a 243c e2f4 9d3c 0098 6f3c b33b 67bd
000002c0: d6de 293d f97c 6ebc 04b4 09bc 6592 38bc
000002d0: 17d0 743d b372 0ebd c684 4fbd 04ab 833c
000002e0: ea9b 8abc fb78 49bd 2428 eeba 28f1 53bc
000002f0: 3abf f0bc a293 b3bc d095 89bd c3d4 823c
00000300: cd7b 52bd 8eae 45bd 2493 cebc a5b6 853d
00000310: 878d 26bd 64d3 67bb bc29 2c39 1e3a 3abd
00000320: 1f6c 3c3c 9c76 e23c f765 273d e8e8 2c3c
00000330: be65 843b 8acb f23c fef8 fc3c 0bf9 80bd
00000340: 81eb 8cbb 39f5 57bd 6a36 813c 6f49 7bbd
00000350: 2022 a8bc 8f33 50bc e2be 83bd f49b 103c
00000360: d464 0b3d ffa4 613b 973d 59bd c3c9 7abc
00000370: 56da a33c 29b0 f3bc f741 183c 1ec1 21bd
00000380: dc2d 93bd 92e7 0bbd 92f6 c0bc e1de f7bc
00000390: 09a4 c83c e57e 3cbd f0ce f23b 34fd c73c
000003a0: 3cc2 69bd e183 343c 9aac 85bc 9df6 ae3c
000003b0: 4c2d 973c 4962 df3c 7c1a 30bc e45e 6c3c
000003c0: 3f31 f4bc 9a7a 0d3d 655d 55bb 05c2 483d
000003d0: 3bd0 cd3c 8245 cf3b 6aa5 163c b000 7c3b
000003e0: 4f32 c2bc f380 3d3b bbfe a3ba da06 a5bc
000003f0: 8c6d 91bd 71ee fdbc 8753 e3bc 6d38 b3bc
0.006299195 -0.0022944598 -0.0054560057 0.011968823 0.028480012 -0.07828088 -0.0048054596 0.042443987
-0.033554744 0.025247088 -0.057504833 -0.01228834 0.025638327 -0.004231951 0.009462972 -0.0068162056
-0.03373894 -0.043933287 -0.022758266 -0.007159653 0.019083478 -0.02598418 0.022761734 0.07048958
-0.005894906 -0.008778294 -0.07660902 0.036679957 0.029696872 -0.030784318 -0.027974384 0.049537677
0.011306549 -0.047974616 -0.028443547 0.027565027 0.037724067 -0.05912706 -0.073180184 -0.010605267
-0.048355 0.028535077 -0.038081698 -0.02093609 0.05829565 0.038612835 -0.018527027 0.03249394
0.015353925 -0.030573916 0.028512783 -0.013547881 -0.0053027715 0.018674184 -0.028045807 0.02755211
-0.013956478 0.018791981 -0.09654431 0.027202511 0.011889667 -0.017239317 0.027640326 -0.01351087
0.039841566 0.005323056 0.00904764 0.005079749 0.02688429 -0.047505043 0.013502415 -0.010668851
-0.029325742 -0.04097719 -0.0083401855 -0.017095497 -0.05168968 -0.01580101 -0.006754333 -0.0028702377
0.031224335 -0.02028936 -0.02526472 -0.012563283 -0.06638022 -0.06683937 -0.04022627 -0.038115315
-0.07698373 0.04016203 -0.02957195 0.032390747 -0.011631761 0.00273601 0.017590543 -0.024995519
-0.012502691 -0.02736042 -0.008359457 0.028019309 0.01686636 0.046744287 0.054586183 0.031440258
-0.0032375827 0.006441072 -0.07654899 -0.010848471 -0.06257372 0.0003846347 -0.042943336 0.045548446
-0.018477755 0.031572443 -0.05376168 0.019527884 -0.013808223 0.017164515 -0.027782591 0.03210957
0.05642587 0.04016326 -0.01900348 0.010684935 0.059545852 -0.03850942 -0.006993256 -0.010662801
0.023866942 -0.037280742 0.0034430844 -0.006498732 0.02641022 -0.0031391839 -0.08453957 0.0029272316
-0.0021552895 -0.009466956 0.05161684 -0.007995124 0.05449598 -0.04662234 0.0025864006 -0.063329265
-0.045449425 -0.0034840317 0.0007836072 -0.050478335 -0.07521902 0.0053490624 -0.026898175 -0.048906807
-0.016654199 -0.01456097 0.058303155 0.05667249 -0.051204618 -0.013977639 0.030896362 0.021049704
0.020760162 0.005538983 -0.031018669 0.058237437 0.022613384 -0.011907145 -0.010796762 -0.00413888
-0.010758317 -0.0202343 0.0034694362 -0.059718568 0.010016037 0.019281808 0.014623642 -0.056453418
0.04147228 -0.014556163 -0.0084047355 -0.011265372 0.059768762 -0.034777354 -0.050663732 0.016072758
-0.016920049 -0.04918764 -0.0018169922 -0.012935914 -0.029388059 -0.021920983 -0.067180276 0.015970593
-0.051387597 -0.04826217 -0.025216646 0.06528977 -0.040662315 -0.0035373801 0.00016418746 -0.04546558
0.011500387 0.027644448 0.040868726 0.010553576 0.004040449 0.02963807 0.030880447 -0.06297501
-0.004300535 -0.052724097 0.015773017 -0.06134933 -0.020524085 -0.012707605 -0.064328924 0.008826245
0.034031704 0.003443062 -0.053037252 -0.015306893 0.020001572 -0.029747086 0.009293071 -0.03949081
-0.07186481 -0.03415639 -0.023555074 -0.030257644 0.02449228 -0.046019454 0.007409923 0.024412729
-0.057070002 0.0110177705 -0.016317654 0.021357829 0.018454216 0.027268546 -0.010748502 0.014426921
-0.029808639 0.03454075 -0.0032556888 0.049013156 0.025123706 0.0063254246 0.009194711 0.0038452558
-0.02370563 0.002891597 -0.0012511829 -0.020144869 -0.071009725 -0.030997487 -0.02774979 -0.021877492

network_body._body_endoder.seq_layers.2.weight f4 [256, 256]
00000000: f569 e4bd a228 9dbc 73ff 3bbe 5ac5 e03b
00000010: 98de 913c 9f33 6abd 436a 8b3d 2abc 8dbd
00000020: 37b1 0b3c 03d1 6ebd 2e0f b7bd 273d 413d
00000030: 383b 19bc cd04 36bd 4c40 a33d a790 633d
00000040: 670a 24bd 38a7 03bd 689d 533c 5e36 483d
00000050: 7ba6 983d bcc5 04be 0eec 243d 7485 c63c
00000060: 8bbf 52bd 36bc 8ebb 1ff2 88bd b930 92bd
00000070: e488 0f3d c349 66bd bb8d f93d e5dc f03d
00000080: cd48 91bd df81 27bd ca2b c3bd 23a7 773d
00000090: b4a8 393d c68d 7cbd 0827 9cbd 7690 9a3d
000000a0: e6df 11bd f2d8 c4bc b14b 0d3c 3564 debb
000000b0: b543 56bd 73d8 333d 1751 18bd ba9f 9d3d
000000c0: 6a4c 053e 99e4 e93d c781 97bd 3f6b 21bd
000000d0: f433 0abe e191 9dbd e378 c7bd 30f4 e13d
000000e0: b571 88bc 21d6 a6bd 8099 63bd 4a90 d83d
000000f0: 71d2 74bd 303a 1dbd 9414 053d d3e6 42bb
00000100: b74e e9bd 0150 a2bc a416 75bd d2fc 25bd
00000110: 40f4 2cbc cdd8 a23c 161f b33c 7e65 30bd
00000120: d476 703d c6bd f03d d8cf 9a3c ccf0 a2bd
00000130: c1d1 953d 10e2 893c cc99 d53b 1507 3fbd
00000140: 563c 57bd 5470 583d 5538 12be f229 6bbd
00000150: fa08 17be fa08 f83c e20f 24be ccb8 23bd
00000160: 6636 813d c3be 81bd 49c0 02bd e0e4 9b3c
00000170: 12c9 0abc 10c1 0dbd 5f53 52bd 3bc5 29bd
00000180: b266 f1ba 2182 15bd af3b f43c 5815 503d
00000190: 259a 473e 213d fb3c e199 003d 79d2 98bd
000001a0: 3123 863b ae6d 223e e631 39bd 6f32 b7bd
000001b0: a775 89bd 4c62 113d 118d 3cbd 2cef b2bc
000001c0: 1c55 34bb c6ff 123d 7dad 4e3d a65e 6a3d
000001d0: b676 233e a7d4 0bbe e073 afbc b49e 813a
000001e0: 5070 553c ba4c d7bd bfa1 a9bd 9d65 8ebd
000001f0: b3a0 91bd e5c2 e83d bd51 2f3e cb32 1abc
00000200: a8d6 d7bd 1e1b 29bc b897 ce3a 6d29 ce3c
00000210: ac8c 73bd bd7d 21bc a62a 3d3d 3868 483c
00000220: 30e8 ddbc b994 a63c 85d0 a9bc 7c71 133e
00000230: cbb3 893d 60bb a8bc 1275 1dbe 9927 1eba
00000240: 1d7c d93b 9798 59bd f004 13bd d53e 743d
00000250: 5d0a 00bd 1733 54bc d6cb 84bd 7649 e7bd
00000260: 8f1e 5c3b 3cd0 7cbd d2b9 fa3d 4aa0 283d
00000270: 99ff 61bc 1967 373e b9ca b0bd d952 efbd
00000280: ef09 75bd d701 84bc f745 7f3d 0491 de3b
00000290: e572 ddbc c229 00be eb0e dabc cf90 f5bd
000002a0: 5c2a b43d 2db7 f2bd 4d3d d13d 3766 9fbd
000002b0: bc60 6ebd 78d6 c7bd 54fa 043e bf62 ebbd
000002c0: c9b3 0bbd 672d 573e 4471 b33c 5be5 98bc
000002d0: 616f 45bd 0ad4 72bd d920 483d 2660 9e3d
000002e0: 43a0 7fbd f296 013d f199 913d 4825 96bd
000002f0: 1810 fb3d 703e d9bd a22d 9dbd 579a 633d
00000300: b62b 57bd fa72 15bd 2e1d ac3c fff8 edbc
00000310: 466c ddbd 8884 35ba ad0d 5cbd b879 3ebc
00000320: b3a5 c9bc cc61 b1bc a353 8f3d 7cce af3d
00000330: 4a25 b2bd 2fbe c1bc a17c 64bd 7dc2 2e3c
00000340: 7e93 25be 1705 46bc 45dd 4abd 86f3 38bd
00000350: cd70 c03d 0d71 953d fb7a ff3c d504 9fbd
00000360: 4980 c8bd 588a 2cbe 1ff5 053e 175f efbb
00000370: 0e2f 86bc 193c 1fbd 3fd0 04be bfc0 973a
00000380: e954 613d 9dbb 61ba e319 d5bc 9829 cb3d
00000390: abc2 21bd 002b 05bd ef04 40bd 7c4d 843c
000003a0: e52f 7abd c306 e93d a3ef bd3d 3fba f53d
000003b0: a22f 31bd 0656 973d 21f6 c63d 115e c33d
000003c0: a8df b6ba 1644 f83c 5e10 2bbc 37d0 033b
000003d0: 8ea9 453d b2e2 6ebd d026 ca3b 4e7f c3bd
000003e0: 1cbc c0bd 2cba c9bc b055 ecbc eff6 6b3d
000003f0: deb5 29bd 8f0f 8b3d 8c68 b23d dbf4 093d
-0.11153022 -0.019184414 -0.18359165 0.0068594636 0.017806336 -0.057178136 0.06807377 -0.06920655
0.008526138 -0.058304798 -0.08938442 0.04717746 -0.009352498 -0.044438172 0.07971248 0.055557873
-0.040048983 -0.032141894 0.012915947 0.048879974 0.07453629 -0.12966055 0.04026418 0.024233557
-0.0514522 -0.0043559326 -0.06686806 -0.07138199 0.03504266 -0.05622269 0.12185236 0.11760882
-0.07093964 -0.04089534 -0.095298365 0.06046213 0.045326903 -0.061658643 -0.07624632 0.07547085
-0.035613917 -0.024029229 0.008624003 -0.006786848 -0.052310664 0.043907594 -0.03718671 0.07696481
0.13017431 0.11420555 -0.073978 -0.03940892 -0.13496381 -0.0769384 -0.09739854 0.11032903
-0.016655782 -0.081463106 -0.05556631 0.10574396 -0.059771005 -0.03838557 0.032490328 -0.0029739633
-0.11391967 -0.01981354 -0.059836045 -0.04052431 -0.010556281 0.01987877 0.021865409 -0.04306554
0.058707073 0.117549464 0.018897936 -0.079560846 0.07315398 0.016831428 0.006518578 -0.046637613
-0.052547775 0.0528415 -0.14279301 -0.05741305 -0.14749518 0.030277718 -0.16021684 -0.039971158
0.06309204 -0.06335213 -0.03192166 0.019030035 -0.00847079 -0.034607947 -0.05134904 -0.04144786
-0.0018417446 -0.036501054 0.029813616 0.050801605 0.19492395 0.030668797 0.03139675 -0.074620195
0.0040935506 0.15862152 -0.045213602 -0.08945166 -0.067118935 0.035494134 -0.04603297 -0.021842562
-0.002751655 0.035888456 0.05045842 0.05721917 0.15963253 -0.13655339 -0.021417558 0.0009889216
0.013027266 -0.10512681 -0.08282804 -0.06952975 -0.07110729 0.11365298 0.17121024 -0.009411524
-0.10538989 -0.010321407 0.0015761768 0.025166238 -0.059460327 -0.0098566385 0.04618325 0.012231879
-0.027088255 0.020334588 -0.020729313 0.1439876 0.06723746 -0.02059716 -0.1537669 -0.0006033122
0.00663711 -0.053124037 -0.03589338 0.059630234 -0.031259883 -0.012951634 -0.06484191 -0.112933084
0.003358755 -0.061722025 0.12242474 0.04116849 -0.013793849 0.17910422 -0.08632416 -0.11685724
-0.059823927 -0.016114159 0.062322583 0.0067921896 -0.027032325 -0.1251593 -0.026618442 -0.11990511
0.08797142 -0.11851344 0.1021677 -0.07783168 -0.05819772 -0.097577035 0.12986118 -0.11493444
-0.034107003 0.21013413 0.021904595 -0.018664053 -0.048201922 -0.059284247 0.04885945 0.077331826
-0.062408697 0.031638093 0.0710944 -0.073313296 0.12258929 -0.10607612 -0.076747194 0.05556711
-0.05253192 -0.036486603 0.021010008 -0.029049395 -0.10811667 -0.0006924351 -0.05372398 -0.0116257
-0.024615144 -0.021653078 0.06998374 0.08584306 -0.086985186 -0.023650257 -0.055782918 0.010666487
-0.16169545 -0.012086174 -0.049527425 -0.045154117 0.09396515 0.07296953 0.031186571 -0.077645935
-0.097900935 -0.16849649 0.13081788 -0.0073050368 -0.01637986 -0.038875673 -0.12970065 0.0011577829
0.055012617 -0.00086110254 -0.02601332 0.09920043 -0.03949229 -0.03251171 -0.046879705 0.016150229
-0.061080832 0.11378243 0.09274223 0.11998414 -0.043258317 0.073894545 0.09714914 0.09539426
-0.0013952153 0.030305903 -0.010440914 0.002011312 0.048257403 -0.058321662 0.0061691776 -0.09545766
-0.09410879 -0.024624906 -0.028849453 0.05760854 -0.041433208 0.06790077 0.08711347 0.033680778

network_body._body_endoder.seq_layers.2.bias f4 [256]
00000000: e7ae 08bd 57ba 47bc 5a65 34bd d68d 9fbc
00000010: 93a5 85bc ec28 adbb b6e4 95bb 0241 cabd
00000020: f76c d8bd 8859 64bd 45da a1bd c77a b5bd
00000030: 4f66 dbbd 0d68 8ebc ab0c bdbc 25b6 bfbc
00000040: 4579 bfbd ea36 c1bd 4c53 b0bd 1f65 6cbc
00000050: 2c4a d9bd 8e5d 44bd 571c 5fbd 4993 02bd
00000060: d2d8 cdbb da05 123c 0402 11bd 5019 dcbc
00000070: 100f 6bbd 37b2 c6bc 3346 eabc 6a07 e3bc
00000080: 3042 e3bc b246 a8bc b1a5 b3bc 5156 89bd
00000090: 3c25 babc 58cf c2bc 9f14 6ebd 7b26 91bc
000000a0: 634b 81bc 0060 dabc cdeb 16bd 30c0 9ebc
000000b0: 26d0 9bbc 17b8 9bbd 248f 2ebc 27f1 93bb
000000c0: 7d4f c1bd 75c4 b5bc 38a1 03bd 3e9c a3bd
000000d0: 0d9c 15bc 34f0 46bc b5f3 0bbd 91c3 7cbd
000000e0: e312 b7bc 2d79 85bc ffd5 05bd 15a8 f6bc
000000f0: 8bf0 c23b f8e7 acbc fe84 01bd 87c5 f7b8
00000100: ef11 8cbc 04d8 23bd c9be 1dbd aede 61bd
00000110: 2780 72bd 586e 1dbd e592 eebc e1f5 29bd
00000120: 83e1 76bc 01cf c8bd 68c8 8ebd d3f8 46bd
00000130: 857c 12bd 6954 c43b a7c0 70bd 1002 8abc
00000140: 27c9 343c 8821 973a db74 c0bd 29cc 15bc
00000150: 1133 c9bc 09bd 23bc 25e1 6bbc f19e 43bc
00000160: 162c 93bc feef e5bc adb3 3ebc 4a1c 4dbc
00000170: adc9 9bbd eab4 7fbc 5c96 09bd 6967 993b
00000180: cfc5 80bc 36ce a0bc 2eb9 89bd c938 e7bc
00000190: 2d61 49bc 125c eebc adf7 84bc 3ab7 2abc
000001a0: 8782 45bd 94df 03bc ecfc b0bd c482 b0bd
000001b0: c8f8 65bd 9676 20bd 99dd febc 2253 0c3b
000001c0: 15d9 73bc 7b39 80bc 9f02 a3bd 8b2f c7bc
000001d0: 87d8 0ebd dec7 38bd efb1 8dbc 8fca 09bd
000001e0: c77b d2bb 7c1b 4bbc 394a 63bc 5b46 e3bd
000001f0: bb9e a2bc 1d9d 95bd 9381 4dbd 6cfb 44bd
00000200: 5a23 46bc 4ec6 f03c eac5 62bc f104 7e3c
00000210: b78c 0abd a0d1 12bd 4877 3fbd 5f71 a0bc
00000220: 7ba1 01bd bfe6 78bd 3551 cc3a 5c43 8dbc
00000230: bde8 1abd eba8 87bd 4fa6 79bc dfb3 8ebc
00000240: 10b0 45bd 833b c3bd 3421 24bc 459d 733b
00000250: d1b2 a6bd c3ef bfbc 9ae4 58bb 1870 aabc
00000260: 22bd d6bb 4457 61bc 3039 9dbc d424 92bd
00000270: 77cb 40bd 23be 3fbc d4bc adbb 0b6f d6bc
00000280: 5d68 55bd ea23 bebd 947e bfbd d8a5 ed3b
00000290: 7cb0 47bc ffcc 90bd 2890 78bc 6a58 efbb
000002a0: 1055 323b 6aa4 f3bc 49f3 bebc 0381 80bd
000002b0: 5083 e0bc 2a79 d1bc 0eab 8ebd 359c 75bc
000002c0: 877c 3ebd 304d 6dbc b395 efbc fde0 15bb
000002d0: c2cb 56bc 62c3 aabb 387d ddbd 7aec a5bd
000002e0: e98c 74bc 9591 9abc 6bc5 3abd e48c 19bc
000002f0: fb74 043c 3d0e f1bc 5354 23bd 9d01 34bd
00000300: 9b3c a8bc 7ef6 dbbc 3cd1 38bc d997 92bd
00000310: 70da 8cbd 1606 58bd 0133 a1bc 96e9 5abd
00000320: 69e4 a2bb 7de6 0bbd 115f 0c3b 696c 8abd
00000330: c6f4 53bc 7046 37bc 5305 49bc bacc c9bd
00000340: d7b6 0cbd 1bb3 8fbd 542a f1bb dc50 56bd
00000350: 143d 1dbd 57f0 80bb 34c3 19bd d290 afbc
00000360: 9444 aeba 49b5 98bc 3333 b4bc db82 79bd
00000370: f9f1 0dbd a8f6 9cbb f790 43bd 4fe4 70bc
00000380: 2053 ecbc e6c6 80bc c3e7 9dbd 9786 b7bd
00000390: 7d06 28bc a32f cdbd 7f34 063c ca90 8bbc
000003a0: 5ebe 70bd adb7 11bd 3719 23bd 3bc3 c33c
000003b0: 794b 96bc 5fdf cabd 5a79 83bc 156c fd39
000003c0: 087d ff3b 6646 f4bc 1261 38bd e2a3 c9bd
000003d0: 26b9 c8bc f052 d2bc f361 3bbd db55 31bc
000003e0: c787 efbd a63e 0fbd 08cc fdbc 1386 afbc
000003f0: e531 f5bd 12e4 4abd 3c64 99bd d30f bdbc
-0.033369925 -0.012190423 -0.04404197 -0.019476812 -0.016314304 -0.0052844193 -0.0045743836 -0.098756805
-0.105676584 -0.055749446 -0.0790296 -0.088613085 -0.10712873 -0.0173836 -0.02307733 -0.023402283
-0.09349302 -0.09434302 -0.086096376 -0.014428406 -0.1060985 -0.047940783 -0.054470386 -0.031878743
-0.0062819505 0.008912528 -0.035402313 -0.026867539 -0.05738741 -0.024254901 -0.028597927 -0.027713496
-0.027741522 -0.020541523 -0.021929594 -0.06705917 -0.022722833 -0.02378051 -0.058125135 -0.017718544
-0.015783018 -0.026657104 -0.03684597 -0.019378752 -0.019020151 -0.07603472 -0.010654245 -0.0045148316
-0.09438989 -0.022188405 -0.032136172 -0.07988785 -0.009131444 -0.01214223 -0.034167964 -0.061709944
-0.022347873 -0.016293133 -0.032674786 -0.030109445 0.005949085 -0.021106705 -0.03162097 -0.0001181467
-0.017098395 -0.04000093 -0.038512025 -0.055144005 -0.059204247 -0.03843531 -0.02912278 -0.041494254
-0.015068415 -0.09805108 -0.06971818 -0.04857714 -0.035763282 0.005991508 -0.058777478 -0.016846687
0.011034287 0.0011530379 -0.093972884 -0.009142914 -0.024560483 -0.0099938 -0.01439694 -0.01193975
-0.017965358 -0.028068539 -0.011639518 -0.012518952 -0.07606826 -0.015607098 -0.03359066 0.004681517
-0.015719322 -0.019629579 -0.06724773 -0.02822532 -0.012291235 -0.029096637 -0.016231382 -0.010419661
-0.048220184 -0.008048911 -0.08641991 -0.086186916 -0.05614546 -0.039175592 -0.031111525 0.0021411856
-0.014883299 -0.015652409 -0.07959484 -0.024314662 -0.034874465 -0.045112483 -0.01729676 -0.03364044
-0.006423447 -0.0123966895 -0.0138726765 -0.110974036 -0.01985108 -0.073053576 -0.0501724 -0.048091337
-0.012093389 0.029391434 -0.013841132 0.015504108 -0.033825602 -0.035844445 -0.046744615 -0.01958531
-0.03164814 -0.06076693 0.0015588166 -0.017244034 -0.037819613 -0.066240154 -0.015237405 -0.017419754
-0.04826361 -0.09532835 -0.010017682 0.0037172597 -0.08139575 -0.023429757 -0.0033095242 -0.020805404
-0.006553308 -0.013753716 -0.019192308 -0.07135931 -0.04706904 -0.011703047 -0.005302051 -0.026175996
-0.05210148 -0.09284194 -0.09350315 0.007252436 -0.012188073 -0.0707035 -0.015171088 -0.007304241
0.0027211346 -0.029741485 -0.023309367 -0.06274607 -0.027406365 -0.02557047 -0.0696622 -0.014990856
-0.046505477 -0.014483735 -0.029246187 -0.00228697 -0.013110103 -0.0052112797 -0.10814899 -0.08101745
-0.014926174 -0.018868247 -0.04559843 -0.00937197 0.008084531 -0.029425735 -0.03987534 -0.04394685
-0.020536711 -0.026850935 -0.011280354 -0.07157869 -0.06877601 -0.05274018 -0.01967764 -0.05344542
-0.0049710763 -0.034155358 0.0021418969 -0.06758959 -0.0129367765 -0.011186227 -0.012269336 -0.098535016
-0.034354057 -0.070165835 -0.0073597822 -0.052323207 -0.038388327 -0.0039349007 -0.037539676 -0.02143136
-0.0013295584 -0.018641131 -0.02199707 -0.06091581 -0.03465459 -0.004790146 -0.04774567 -0.0147028705
-0.02884823 -0.015719842 -0.07710221 -0.08961218 -0.010255453 -0.100188516 0.008191227 -0.017036814
-0.0587753 -0.035575558 -0.03981897 0.023896804 -0.018346535 -0.09905886 -0.016049076 0.00048336448
0.0077968873 -0.029818725 -0.04501445 -0.09845711 -0.024502348 -0.025674313 -0.04574771 -0.010823692
-0.11695819 -0.034971856 -0.030981079 -0.021426236 -0.11972407 -0.04953391 -0.07489821 -0.023078835

action_model._continuous_distribution.log_sigma f4 [1, 2]
00000000: be9f 213d 7e7c ca3d
0.039458983 0.09887026

action_model._continuous_distribution.mu.weight f4 [2, 256]
00000000: 4c2e cfbb 3833 973b df16 febc 522f 7dbb
00000010: 658e b7bb f3ac b73c cb27 ad3b c980 1dbd
00000020: 0d36 1ebd e0c0 70bb fdbd 2bba c3f1 2cbd
00000030: cf8e 2ebd 4ad5 ffbb 49fb 2e3c 2128 51bc
00000040: 4317 f0bc b72b 3dbd c418 bebc c906 d3ba
00000050: f7dc 54bd 8027 8ebc 694e 7a3c de78 dd3c
00000060: d461 9c3b f4d2 27bc 8911 803b 773b 793b
00000070: c1e9 81bb aafe cf3c a241 41bb c582 1a3d
00000080: 8bd8 13bc efbe ee3c 69e3 0f3c d8fe 0cbd
00000090: ce71 0cbc 3452 67bb 49f9 ffbc a035 a3ba
000000a0: badf 42bd 6500 52bc eb91 00bd 41de 7bbc
000000b0: cc2b 2d3d f95e 39bd 473d 863b 336b 5c3b
000000c0: 42d2 63bd 7ed0 723c 4828 993c d795 18bd
000000d0: 8b81 f93b 42e8 f93b b959 e7bb ba9c d4bc
000000e0: 1616 e23c 45d1 963c b4a2 c8bb 9a34 fabc
000000f0: 3502 a0bb 82de 59bc 9277 323c 5834 673c
00000100: 33ee c73b 936f b5bb 5531 0fba c271 84bd
00000110: c168 9a3b 766a 3bbc 73fe bd3c 24d2 6cbb
00000120: f3d1 a1bc 2654 05bd 8338 bbbc 4f07 d5bc
00000130: cbf7 113d 8160 6c3c 0063 61bc 7295 993c
00000140: f3c9 883c 980b ffbb 820e 09bd 060b c63c
00000150: e8a6 63bc 2f05 4d3d 51c7 eebc 49ce 383c
00000160: 07d9 a4ba b7b7 4cbd 22e0 0f3d a627 c33b
00000170: bc8e 83bd 4ece bdbc f478 40bc 44f3 373c
00000180: d981 0b3c 1d5d e3bc 792e 2dbb 937b d73c
00000190: b2e3 2e3c e8df 5fbc 86cf 173d 1575 633c
000001a0: b1c8 a0bc 772c 8dbc a8e8 78bd 4a74 0cbd
000001b0: d580 a9bc 33d0 1cbd b526 44bc 3866 ed3c
000001c0: 1100 8e3c 9856 253d d9dc cdbc 5fcb 8e3c
000001d0: b32c adbc 5d57 b53c e06a 2f3b a417 2c3c
000001e0: 0799 733c 730d 933c 277e 91bc eb44 32bd
000001f0: 6720 9a3c 5190 84bc b94a ab3c ebb4 cc3c
00000200: ec03 503c 68e3 293d bc14 4fbc 5360 883d
00000210: 7ab7 38bd 7565 db3c 6eba 503b 612e 993d
00000220: d617 36bd 4c83 82bc 830f 823b f16b c43b
00000230: ac11 123b b4c0 2fbd af90 1e3b 36b1 e33b
00000240: fad5 bcbc 3670 d8bc 380a e83a 3f83 103d
00000250: 70f6 c7bb 3803 9bbb a87a 31bb e5d4 bcbc
00000260: 1a37 703c 6356 843c 2089 9bbb 508b 60bd
00000270: d036 15bb ab05 3b3b 8c23 2d3c 8d3d 42bc
00000280: 1950 9239 0e88 20bd 5948 e4bc ca5c b03c
00000290: dd82 8f3c ecc2 30bc e1ba d6bb dcb2 04bd
000002a0: e54a 3abd fee7 f93c 5c4b c53c 8198 12bc
000002b0: 53ef 3bbc fbf4 183c 4b48 51bd f6ef 963c
000002c0: 5535 82bc 363f 9c3b b493 ef3b 5df9 043d
000002d0: 1557 cabc 4ae4 793c c642 33bd 3931 ffbc
000002e0: 1277 8a3c 0fc0 753c 886a fcbc 3531 553c
000002f0: c085 05bd 23aa 68bc 18ff ad3a 8bc1 34bb
00000300: af70 1d3d 1dbd 2f3c 2157 41bc 81d5 3ebd
00000310: 028a 04bd 1de4 d73c 99d3 b13b 19d0 15bc
00000320: 66e6 b33d 68e0 81bd 8047 22bc 6beb 4fbd
00000330: 19a7 b33c 4a0e b4bc 7b74 cc3c 9e75 5bbd
00000340: b632 dfbc b0d2 bcbc 14cb 183c 78aa 053c
00000350: 0813 f73b 7c94 44bd ae93 b53c b9be 11bb
00000360: 9169 c73b 4591 643c 78a6 dfbc d658 ecbc
00000370: 19eb 25bd 7c6f 193c 9db6 b0bb af48 acbc
00000380: 1f90 d93b 02d6 193d f1ba b5bc 2910 81bc
00000390: 26bf 12bb 3279 04bd 9f72 923c 57fc 1f3d
000003a0: e813 09bd 6955 92bc bc83 b4ba e815 adbc
000003b0: 7440 de3c 7786 31bd 5062 fabc 275e fb3c
000003c0: 511b fcbb 8331 9cbc 791e 35bd 4feb 75bc
000003d0: 2cef 343c e1b4 7e3b 45cc 78bc 9df4 3fba
000003e0: f10b 06bd 47f0 4dbb cc6a 7bbc d6a3 e6bc
000003f0: 464c 1ebd b52b 4fbd e8d3 71bd 5b82 f2bb
-0.0063226577 0.00461426 -0.031016765 -0.0038632941 -0.0056016915 0.022421336 0.0052842847 -0.038452897
-0.038625766 -0.0036736056 -0.0006551443 -0.04222275 -0.04261666 -0.0078074085 0.010680028 -0.012765915
-0.029307967 -0.046184268 -0.023205169 -0.0016100045 -0.05196854 -0.01735282 0.0152774835 0.027035173
0.004772404 -0.010243166 0.0039083404 0.0038029829 -0.003964633 0.025389988 -0.0029488583 0.037722368
-0.009023796 0.029143779 0.008782246 -0.034422725 -0.008572055 -0.00352968 -0.031246798 -0.0012451895
-0.047576644 -0.012817477 -0.03138916 -0.015372814 0.042278096 -0.04525659 0.0040966603 0.0033633232
-0.05562044 0.014820216 0.018695965 -0.037252273 0.0076143197 0.0076265642 -0.0070602563 -0.02595364
0.027598422 0.018410334 -0.0061229113 -0.03054266 -0.0048830756 -0.013297679 0.010892766 0.014111601
0.0061013936 -0.0055369823 -0.0005462368 -0.0646701 0.0047121947 -0.0114389565 0.02319262 -0.0036135996
-0.019753432 -0.032550953 -0.022854095 -0.026004462 0.035636704 0.014427305 -0.013756514 0.018748019
0.01669786 -0.0077833645 -0.0334611 0.024175178 -0.013894774 0.05005377 -0.029147776 0.011279651
-0.0012576886 -0.04997989 0.03512586 0.005955654 -0.06423709 -0.023169663 -0.0117475875 0.011227433
0.008514845 -0.02775436 -0.0026425405 0.026304042 0.010674404 -0.013664223 0.037063144 0.013882895
-0.019626947 -0.017233117 -0.060768753 -0.03429059 -0.020691315 -0.03828449 -0.011972119 0.028979406
0.017334016 0.040365785 -0.025129722 0.01743096 -0.021139478 0.022136385 0.0026766583 0.010503683
0.0148680275 0.017950749 -0.01776035 -0.043522757 0.018814279 -0.016182097 0.020909654 0.024988612
0.012696248 0.041476637 -0.012639221 0.066589974 -0.045096852 0.026781777 0.0031849402 0.07479549
-0.044456325 -0.015931748 0.0039691343 0.005994313 0.0022288365 -0.042908385 0.0024195125 0.0069486154
-0.02305125 -0.026420694 0.0017703241 0.035281416 -0.0061023757 -0.0047306083 -0.0027081165 -0.023050735
0.014661575 0.016154474 -0.004746571 -0.05482036 -0.0022768266 0.0028537314 0.010567557 -0.011855495
0.00027906967 -0.03919225 -0.02786653 0.02152862 0.017518455 -0.0107886605 -0.0065530394 -0.032397136
-0.04548158 0.03050613 0.024083786 -0.008947493 -0.011470634 0.009335752 -0.051094335 0.01842497
-0.015894571 0.0047682775 0.0073113088 0.032464374 -0.024699727 0.015252182 -0.043764852 -0.0311514
0.01690248 0.014999404 -0.030812517 0.01301222 -0.032598257 -0.01420072 0.0013274876 -0.002758118
0.03843754 0.01072624 -0.011800558 -0.046590332 -0.032358177 0.02635389 0.0054268357 -0.009143853
0.087841794 -0.0634163 -0.009904742 -0.05076162 0.021930264 -0.02197947 0.024957886 -0.053578965
-0.02724586 -0.023049682 0.009325761 0.008158319 0.0075401105 -0.04799317 0.022165146 -0.0022238924
0.0060855825 0.013950651 -0.027301058 -0.028850954 -0.04050741 0.009364959 -0.005392863 -0.021030752
0.006639495 0.03755761 -0.022183867 -0.015754776 -0.0022391765 -0.032342143 0.017876921 0.03905901
-0.03346625 -0.017862992 -0.001377217 -0.02112861 0.027130343 -0.043341126 -0.030564457 0.030684544
-0.007693686 -0.019066578 -0.044218514 -0.015009715 0.011043351 0.0038865136 -0.01518542 -0.0007322522
-0.032726232 -0.0031423734 -0.015345287 -0.028154295 -0.03864696 -0.05057879 -0.05903998 -0.0074007935

action_model._continuous_distribution.mu.bias f4 [2]
00000000: ad98 3a3d e4c7 883d
0.04555576 0.06678751
